{"keras_version": "2.0.3", "class_name": "Model", "config": {"layers": [{"inbound_nodes": [], "name": "input_1", "config": {"sparse": false, "batch_input_shape": [null, 299, 299, 3], "dtype": "float32", "name": "input_1"}, "class_name": "InputLayer"}, {"inbound_nodes": [[["input_1", 0, 0, {}]]], "name": "conv2d_1", "config": {"bias_constraint": null, "activity_regularizer": null, "dilation_rate": [1, 1], "kernel_regularizer": null, "activation": "linear", "bias_regularizer": null, "use_bias": false, "strides": [2, 2], "data_format": "channels_last", "kernel_size": [3, 3], "kernel_constraint": null, "bias_initializer": {"class_name": "Zeros", "config": {}}, "trainable": true, "kernel_initializer": {"class_name": "VarianceScaling", "config": {"scale": 1.0, "distribution": "uniform", "mode": "fan_avg", "seed": null}}, "padding": "valid", "filters": 32, "name": "conv2d_1"}, "class_name": "Conv2D"}, {"inbound_nodes": [[["conv2d_1", 0, 0, {}]]], "name": "batch_normalization_1", "config": {"beta_regularizer": null, "gamma_constraint": null, "gamma_regularizer": null, "moving_variance_initializer": {"class_name": "Ones", "config": {}}, "epsilon": 0.001, "moving_mean_initializer": {"class_name": "Zeros", "config": {}}, "scale": false, "momentum": 0.99, "gamma_initializer": {"class_name": "Ones", "config": {}}, "axis": 3, "center": true, "trainable": true, "beta_constraint": null, "name": "batch_normalization_1", "beta_initializer": {"class_name": "Zeros", "config": {}}}, "class_name": "BatchNormalization"}, {"inbound_nodes": [[["batch_normalization_1", 0, 0, {}]]], "name": "activation_1", "config": {"activation": "relu", "name": "activation_1", "trainable": true}, "class_name": "Activation"}, {"inbound_nodes": [[["activation_1", 0, 0, {}]]], "name": "conv2d_2", "config": {"bias_constraint": null, "activity_regularizer": null, "dilation_rate": [1, 1], "kernel_regularizer": null, "activation": "linear", "bias_regularizer": null, "use_bias": false, "strides": [1, 1], "data_format": "channels_last", "kernel_size": [3, 3], "kernel_constraint": null, "bias_initializer": {"class_name": "Zeros", "config": {}}, "trainable": true, "kernel_initializer": {"class_name": "VarianceScaling", "config": {"scale": 1.0, "distribution": "uniform", "mode": "fan_avg", "seed": null}}, "padding": "valid", "filters": 32, "name": "conv2d_2"}, "class_name": "Conv2D"}, {"inbound_nodes": [[["conv2d_2", 0, 0, {}]]], "name": "batch_normalization_2", "config": {"beta_regularizer": null, "gamma_constraint": null, "gamma_regularizer": null, "moving_variance_initializer": {"class_name": "Ones", "config": {}}, "epsilon": 0.001, "moving_mean_initializer": {"class_name": "Zeros", "config": {}}, "scale": false, "momentum": 0.99, "gamma_initializer": {"class_name": "Ones", "config": {}}, "axis": 3, "center": true, "trainable": true, "beta_constraint": null, "name": "batch_normalization_2", "beta_initializer": {"class_name": "Zeros", "config": {}}}, "class_name": "BatchNormalization"}, {"inbound_nodes": [[["batch_normalization_2", 0, 0, {}]]], "name": "activation_2", "config": {"activation": "relu", "name": "activation_2", "trainable": true}, "class_name": "Activation"}, {"inbound_nodes": [[["activation_2", 0, 0, {}]]], "name": "conv2d_3", "config": {"bias_constraint": null, "activity_regularizer": null, "dilation_rate": [1, 1], "kernel_regularizer": null, "activation": "linear", "bias_regularizer": null, "use_bias": false, "strides": [1, 1], "data_format": "channels_last", "kernel_size": [3, 3], "kernel_constraint": null, "bias_initializer": {"class_name": "Zeros", "config": {}}, "trainable": true, "kernel_initializer": {"class_name": "VarianceScaling", "config": {"scale": 1.0, "distribution": "uniform", "mode": "fan_avg", "seed": null}}, "padding": "same", "filters": 64, "name": "conv2d_3"}, "class_name": "Conv2D"}, {"inbound_nodes": [[["conv2d_3", 0, 0, {}]]], "name": "batch_normalization_3", "config": {"beta_regularizer": null, "gamma_constraint": null, "gamma_regularizer": null, "moving_variance_initializer": {"class_name": "Ones", "config": {}}, "epsilon": 0.001, "moving_mean_initializer": {"class_name": "Zeros", "config": {}}, "scale": false, "momentum": 0.99, "gamma_initializer": {"class_name": "Ones", "config": {}}, "axis": 3, "center": true, "trainable": true, "beta_constraint": null, "name": "batch_normalization_3", "beta_initializer": {"class_name": "Zeros", "config": {}}}, "class_name": "BatchNormalization"}, {"inbound_nodes": [[["batch_normalization_3", 0, 0, {}]]], "name": "activation_3", "config": {"activation": "relu", "name": "activation_3", "trainable": true}, "class_name": "Activation"}, {"inbound_nodes": [[["activation_3", 0, 0, {}]]], "name": "max_pooling2d_1", "config": {"strides": [2, 2], "data_format": "channels_last", "name": "max_pooling2d_1", "pool_size": [3, 3], "padding": "valid", "trainable": true}, "class_name": "MaxPooling2D"}, {"inbound_nodes": [[["max_pooling2d_1", 0, 0, {}]]], "name": "conv2d_4", "config": {"bias_constraint": null, "activity_regularizer": null, "dilation_rate": [1, 1], "kernel_regularizer": null, "activation": "linear", "bias_regularizer": null, "use_bias": false, "strides": [1, 1], "data_format": "channels_last", "kernel_size": [1, 1], "kernel_constraint": null, "bias_initializer": {"class_name": "Zeros", "config": {}}, "trainable": true, "kernel_initializer": {"class_name": "VarianceScaling", "config": {"scale": 1.0, "distribution": "uniform", "mode": "fan_avg", "seed": null}}, "padding": "valid", "filters": 80, "name": "conv2d_4"}, "class_name": "Conv2D"}, {"inbound_nodes": [[["conv2d_4", 0, 0, {}]]], "name": "batch_normalization_4", "config": {"beta_regularizer": null, "gamma_constraint": null, "gamma_regularizer": null, "moving_variance_initializer": {"class_name": "Ones", "config": {}}, "epsilon": 0.001, "moving_mean_initializer": {"class_name": "Zeros", "config": {}}, "scale": false, "momentum": 0.99, "gamma_initializer": {"class_name": "Ones", "config": {}}, "axis": 3, "center": true, "trainable": true, "beta_constraint": null, "name": "batch_normalization_4", "beta_initializer": {"class_name": "Zeros", "config": {}}}, "class_name": "BatchNormalization"}, {"inbound_nodes": [[["batch_normalization_4", 0, 0, {}]]], "name": "activation_4", "config": {"activation": "relu", "name": "activation_4", "trainable": true}, "class_name": "Activation"}, {"inbound_nodes": [[["activation_4", 0, 0, {}]]], "name": "conv2d_5", "config": {"bias_constraint": null, "activity_regularizer": null, "dilation_rate": [1, 1], "kernel_regularizer": null, "activation": "linear", "bias_regularizer": null, "use_bias": false, "strides": [1, 1], "data_format": "channels_last", "kernel_size": [3, 3], "kernel_constraint": null, "bias_initializer": {"class_name": "Zeros", "config": {}}, "trainable": true, "kernel_initializer": {"class_name": "VarianceScaling", "config": {"scale": 1.0, "distribution": "uniform", "mode": "fan_avg", "seed": null}}, "padding": "valid", "filters": 192, "name": "conv2d_5"}, "class_name": "Conv2D"}, {"inbound_nodes": [[["conv2d_5", 0, 0, {}]]], "name": "batch_normalization_5", "config": {"beta_regularizer": null, "gamma_constraint": null, "gamma_regularizer": null, "moving_variance_initializer": {"class_name": "Ones", "config": {}}, "epsilon": 0.001, "moving_mean_initializer": {"class_name": "Zeros", "config": {}}, "scale": false, "momentum": 0.99, "gamma_initializer": {"class_name": "Ones", "config": {}}, "axis": 3, "center": true, "trainable": true, "beta_constraint": null, "name": "batch_normalization_5", "beta_initializer": {"class_name": "Zeros", "config": {}}}, "class_name": "BatchNormalization"}, {"inbound_nodes": [[["batch_normalization_5", 0, 0, {}]]], "name": "activation_5", "config": {"activation": "relu", "name": "activation_5", "trainable": true}, "class_name": "Activation"}, {"inbound_nodes": [[["activation_5", 0, 0, {}]]], "name": "max_pooling2d_2", "config": {"strides": [2, 2], "data_format": "channels_last", "name": "max_pooling2d_2", "pool_size": [3, 3], "padding": "valid", "trainable": true}, "class_name": "MaxPooling2D"}, {"inbound_nodes": [[["max_pooling2d_2", 0, 0, {}]]], "name": "conv2d_9", "config": {"bias_constraint": null, "activity_regularizer": null, "dilation_rate": [1, 1], "kernel_regularizer": null, "activation": "linear", "bias_regularizer": null, "use_bias": false, "strides": [1, 1], "data_format": "channels_last", "kernel_size": [1, 1], "kernel_constraint": null, "bias_initializer": {"class_name": "Zeros", "config": {}}, "trainable": true, "kernel_initializer": {"class_name": "VarianceScaling", "config": {"scale": 1.0, "distribution": "uniform", "mode": "fan_avg", "seed": null}}, "padding": "same", "filters": 64, "name": "conv2d_9"}, "class_name": "Conv2D"}, {"inbound_nodes": [[["conv2d_9", 0, 0, {}]]], "name": "batch_normalization_9", "config": {"beta_regularizer": null, "gamma_constraint": null, "gamma_regularizer": null, "moving_variance_initializer": {"class_name": "Ones", "config": {}}, "epsilon": 0.001, "moving_mean_initializer": {"class_name": "Zeros", "config": {}}, "scale": false, "momentum": 0.99, "gamma_initializer": {"class_name": "Ones", "config": {}}, "axis": 3, "center": true, "trainable": true, "beta_constraint": null, "name": "batch_normalization_9", "beta_initializer": {"class_name": "Zeros", "config": {}}}, "class_name": "BatchNormalization"}, {"inbound_nodes": [[["batch_normalization_9", 0, 0, {}]]], "name": "activation_9", "config": {"activation": "relu", "name": "activation_9", "trainable": true}, "class_name": "Activation"}, {"inbound_nodes": [[["max_pooling2d_2", 0, 0, {}]]], "name": "conv2d_7", "config": {"bias_constraint": null, "activity_regularizer": null, "dilation_rate": [1, 1], "kernel_regularizer": null, "activation": "linear", "bias_regularizer": null, "use_bias": false, "strides": [1, 1], "data_format": "channels_last", "kernel_size": [1, 1], "kernel_constraint": null, "bias_initializer": {"class_name": "Zeros", "config": {}}, "trainable": true, "kernel_initializer": {"class_name": "VarianceScaling", "config": {"scale": 1.0, "distribution": "uniform", "mode": "fan_avg", "seed": null}}, "padding": "same", "filters": 48, "name": "conv2d_7"}, "class_name": "Conv2D"}, {"inbound_nodes": [[["activation_9", 0, 0, {}]]], "name": "conv2d_10", "config": {"bias_constraint": null, "activity_regularizer": null, "dilation_rate": [1, 1], "kernel_regularizer": null, "activation": "linear", "bias_regularizer": null, "use_bias": false, "strides": [1, 1], "data_format": "channels_last", "kernel_size": [3, 3], "kernel_constraint": null, "bias_initializer": {"class_name": "Zeros", "config": {}}, "trainable": true, "kernel_initializer": {"class_name": "VarianceScaling", "config": {"scale": 1.0, "distribution": "uniform", "mode": "fan_avg", "seed": null}}, "padding": "same", "filters": 96, "name": "conv2d_10"}, "class_name": "Conv2D"}, {"inbound_nodes": [[["conv2d_7", 0, 0, {}]]], "name": "batch_normalization_7", "config": {"beta_regularizer": null, "gamma_constraint": null, "gamma_regularizer": null, "moving_variance_initializer": {"class_name": "Ones", "config": {}}, "epsilon": 0.001, "moving_mean_initializer": {"class_name": "Zeros", "config": {}}, "scale": false, "momentum": 0.99, "gamma_initializer": {"class_name": "Ones", "config": {}}, "axis": 3, "center": true, "trainable": true, "beta_constraint": null, "name": "batch_normalization_7", "beta_initializer": {"class_name": "Zeros", "config": {}}}, "class_name": "BatchNormalization"}, {"inbound_nodes": [[["conv2d_10", 0, 0, {}]]], "name": "batch_normalization_10", "config": {"beta_regularizer": null, "gamma_constraint": null, "gamma_regularizer": null, "moving_variance_initializer": {"class_name": "Ones", "config": {}}, "epsilon": 0.001, "moving_mean_initializer": {"class_name": "Zeros", "config": {}}, "scale": false, "momentum": 0.99, "gamma_initializer": {"class_name": "Ones", "config": {}}, "axis": 3, "center": true, "trainable": true, "beta_constraint": null, "name": "batch_normalization_10", "beta_initializer": {"class_name": "Zeros", "config": {}}}, "class_name": "BatchNormalization"}, {"inbound_nodes": [[["batch_normalization_7", 0, 0, {}]]], "name": "activation_7", "config": {"activation": "relu", "name": "activation_7", "trainable": true}, "class_name": "Activation"}, {"inbound_nodes": [[["batch_normalization_10", 0, 0, {}]]], "name": "activation_10", "config": {"activation": "relu", "name": "activation_10", "trainable": true}, "class_name": "Activation"}, {"inbound_nodes": [[["max_pooling2d_2", 0, 0, {}]]], "name": "average_pooling2d_1", "config": {"strides": [1, 1], "data_format": "channels_last", "name": "average_pooling2d_1", "pool_size": [3, 3], "padding": "same", "trainable": true}, "class_name": "AveragePooling2D"}, {"inbound_nodes": [[["max_pooling2d_2", 0, 0, {}]]], "name": "conv2d_6", "config": {"bias_constraint": null, "activity_regularizer": null, "dilation_rate": [1, 1], "kernel_regularizer": null, "activation": "linear", "bias_regularizer": null, "use_bias": false, "strides": [1, 1], "data_format": "channels_last", "kernel_size": [1, 1], "kernel_constraint": null, "bias_initializer": {"class_name": "Zeros", "config": {}}, "trainable": true, "kernel_initializer": {"class_name": "VarianceScaling", "config": {"scale": 1.0, "distribution": "uniform", "mode": "fan_avg", "seed": null}}, "padding": "same", "filters": 64, "name": "conv2d_6"}, "class_name": "Conv2D"}, {"inbound_nodes": [[["activation_7", 0, 0, {}]]], "name": "conv2d_8", "config": {"bias_constraint": null, "activity_regularizer": null, "dilation_rate": [1, 1], "kernel_regularizer": null, "activation": "linear", "bias_regularizer": null, "use_bias": false, "strides": [1, 1], "data_format": "channels_last", "kernel_size": [5, 5], "kernel_constraint": null, "bias_initializer": {"class_name": "Zeros", "config": {}}, "trainable": true, "kernel_initializer": {"class_name": "VarianceScaling", "config": {"scale": 1.0, "distribution": "uniform", "mode": "fan_avg", "seed": null}}, "padding": "same", "filters": 64, "name": "conv2d_8"}, "class_name": "Conv2D"}, {"inbound_nodes": [[["activation_10", 0, 0, {}]]], "name": "conv2d_11", "config": {"bias_constraint": null, "activity_regularizer": null, "dilation_rate": [1, 1], "kernel_regularizer": null, "activation": "linear", "bias_regularizer": null, "use_bias": false, "strides": [1, 1], "data_format": "channels_last", "kernel_size": [3, 3], "kernel_constraint": null, "bias_initializer": {"class_name": "Zeros", "config": {}}, "trainable": true, "kernel_initializer": {"class_name": "VarianceScaling", "config": {"scale": 1.0, "distribution": "uniform", "mode": "fan_avg", "seed": null}}, "padding": "same", "filters": 96, "name": "conv2d_11"}, "class_name": "Conv2D"}, {"inbound_nodes": [[["average_pooling2d_1", 0, 0, {}]]], "name": "conv2d_12", "config": {"bias_constraint": null, "activity_regularizer": null, "dilation_rate": [1, 1], "kernel_regularizer": null, "activation": "linear", "bias_regularizer": null, "use_bias": false, "strides": [1, 1], "data_format": "channels_last", "kernel_size": [1, 1], "kernel_constraint": null, "bias_initializer": {"class_name": "Zeros", "config": {}}, "trainable": true, "kernel_initializer": {"class_name": "VarianceScaling", "config": {"scale": 1.0, "distribution": "uniform", "mode": "fan_avg", "seed": null}}, "padding": "same", "filters": 32, "name": "conv2d_12"}, "class_name": "Conv2D"}, {"inbound_nodes": [[["conv2d_6", 0, 0, {}]]], "name": "batch_normalization_6", "config": {"beta_regularizer": null, "gamma_constraint": null, "gamma_regularizer": null, "moving_variance_initializer": {"class_name": "Ones", "config": {}}, "epsilon": 0.001, "moving_mean_initializer": {"class_name": "Zeros", "config": {}}, "scale": false, "momentum": 0.99, "gamma_initializer": {"class_name": "Ones", "config": {}}, "axis": 3, "center": true, "trainable": true, "beta_constraint": null, "name": "batch_normalization_6", "beta_initializer": {"class_name": "Zeros", "config": {}}}, "class_name": "BatchNormalization"}, {"inbound_nodes": [[["conv2d_8", 0, 0, {}]]], "name": "batch_normalization_8", "config": {"beta_regularizer": null, "gamma_constraint": null, "gamma_regularizer": null, "moving_variance_initializer": {"class_name": "Ones", "config": {}}, "epsilon": 0.001, "moving_mean_initializer": {"class_name": "Zeros", "config": {}}, "scale": false, "momentum": 0.99, "gamma_initializer": {"class_name": "Ones", "config": {}}, "axis": 3, "center": true, "trainable": true, "beta_constraint": null, "name": "batch_normalization_8", "beta_initializer": {"class_name": "Zeros", "config": {}}}, "class_name": "BatchNormalization"}, {"inbound_nodes": [[["conv2d_11", 0, 0, {}]]], "name": "batch_normalization_11", "config": {"beta_regularizer": null, "gamma_constraint": null, "gamma_regularizer": null, "moving_variance_initializer": {"class_name": "Ones", "config": {}}, "epsilon": 0.001, "moving_mean_initializer": {"class_name": "Zeros", "config": {}}, "scale": false, "momentum": 0.99, "gamma_initializer": {"class_name": "Ones", "config": {}}, "axis": 3, "center": true, "trainable": true, "beta_constraint": null, "name": "batch_normalization_11", "beta_initializer": {"class_name": "Zeros", "config": {}}}, "class_name": "BatchNormalization"}, {"inbound_nodes": [[["conv2d_12", 0, 0, {}]]], "name": "batch_normalization_12", "config": {"beta_regularizer": null, "gamma_constraint": null, "gamma_regularizer": null, "moving_variance_initializer": {"class_name": "Ones", "config": {}}, "epsilon": 0.001, "moving_mean_initializer": {"class_name": "Zeros", "config": {}}, "scale": false, "momentum": 0.99, "gamma_initializer": {"class_name": "Ones", "config": {}}, "axis": 3, "center": true, "trainable": true, "beta_constraint": null, "name": "batch_normalization_12", "beta_initializer": {"class_name": "Zeros", "config": {}}}, "class_name": "BatchNormalization"}, {"inbound_nodes": [[["batch_normalization_6", 0, 0, {}]]], "name": "activation_6", "config": {"activation": "relu", "name": "activation_6", "trainable": true}, "class_name": "Activation"}, {"inbound_nodes": [[["batch_normalization_8", 0, 0, {}]]], "name": "activation_8", "config": {"activation": "relu", "name": "activation_8", "trainable": true}, "class_name": "Activation"}, {"inbound_nodes": [[["batch_normalization_11", 0, 0, {}]]], "name": "activation_11", "config": {"activation": "relu", "name": "activation_11", "trainable": true}, "class_name": "Activation"}, {"inbound_nodes": [[["batch_normalization_12", 0, 0, {}]]], "name": "activation_12", "config": {"activation": "relu", "name": "activation_12", "trainable": true}, "class_name": "Activation"}, {"inbound_nodes": [[["activation_6", 0, 0, {}], ["activation_8", 0, 0, {}], ["activation_11", 0, 0, {}], ["activation_12", 0, 0, {}]]], "name": "mixed0", "config": {"name": "mixed0", "axis": 3, "trainable": true}, "class_name": "Concatenate"}, {"inbound_nodes": [[["mixed0", 0, 0, {}]]], "name": "conv2d_16", "config": {"bias_constraint": null, "activity_regularizer": null, "dilation_rate": [1, 1], "kernel_regularizer": null, "activation": "linear", "bias_regularizer": null, "use_bias": false, "strides": [1, 1], "data_format": "channels_last", "kernel_size": [1, 1], "kernel_constraint": null, "bias_initializer": {"class_name": "Zeros", "config": {}}, "trainable": true, "kernel_initializer": {"class_name": "VarianceScaling", "config": {"scale": 1.0, "distribution": "uniform", "mode": "fan_avg", "seed": null}}, "padding": "same", "filters": 64, "name": "conv2d_16"}, "class_name": "Conv2D"}, {"inbound_nodes": [[["conv2d_16", 0, 0, {}]]], "name": "batch_normalization_16", "config": {"beta_regularizer": null, "gamma_constraint": null, "gamma_regularizer": null, "moving_variance_initializer": {"class_name": "Ones", "config": {}}, "epsilon": 0.001, "moving_mean_initializer": {"class_name": "Zeros", "config": {}}, "scale": false, "momentum": 0.99, "gamma_initializer": {"class_name": "Ones", "config": {}}, "axis": 3, "center": true, "trainable": true, "beta_constraint": null, "name": "batch_normalization_16", "beta_initializer": {"class_name": "Zeros", "config": {}}}, "class_name": "BatchNormalization"}, {"inbound_nodes": [[["batch_normalization_16", 0, 0, {}]]], "name": "activation_16", "config": {"activation": "relu", "name": "activation_16", "trainable": true}, "class_name": "Activation"}, {"inbound_nodes": [[["mixed0", 0, 0, {}]]], "name": "conv2d_14", "config": {"bias_constraint": null, "activity_regularizer": null, "dilation_rate": [1, 1], "kernel_regularizer": null, "activation": "linear", "bias_regularizer": null, "use_bias": false, "strides": [1, 1], "data_format": "channels_last", "kernel_size": [1, 1], "kernel_constraint": null, "bias_initializer": {"class_name": "Zeros", "config": {}}, "trainable": true, "kernel_initializer": {"class_name": "VarianceScaling", "config": {"scale": 1.0, "distribution": "uniform", "mode": "fan_avg", "seed": null}}, "padding": "same", "filters": 48, "name": "conv2d_14"}, "class_name": "Conv2D"}, {"inbound_nodes": [[["activation_16", 0, 0, {}]]], "name": "conv2d_17", "config": {"bias_constraint": null, "activity_regularizer": null, "dilation_rate": [1, 1], "kernel_regularizer": null, "activation": "linear", "bias_regularizer": null, "use_bias": false, "strides": [1, 1], "data_format": "channels_last", "kernel_size": [3, 3], "kernel_constraint": null, "bias_initializer": {"class_name": "Zeros", "config": {}}, "trainable": true, "kernel_initializer": {"class_name": "VarianceScaling", "config": {"scale": 1.0, "distribution": "uniform", "mode": "fan_avg", "seed": null}}, "padding": "same", "filters": 96, "name": "conv2d_17"}, "class_name": "Conv2D"}, {"inbound_nodes": [[["conv2d_14", 0, 0, {}]]], "name": "batch_normalization_14", "config": {"beta_regularizer": null, "gamma_constraint": null, "gamma_regularizer": null, "moving_variance_initializer": {"class_name": "Ones", "config": {}}, "epsilon": 0.001, "moving_mean_initializer": {"class_name": "Zeros", "config": {}}, "scale": false, "momentum": 0.99, "gamma_initializer": {"class_name": "Ones", "config": {}}, "axis": 3, "center": true, "trainable": true, "beta_constraint": null, "name": "batch_normalization_14", "beta_initializer": {"class_name": "Zeros", "config": {}}}, "class_name": "BatchNormalization"}, {"inbound_nodes": [[["conv2d_17", 0, 0, {}]]], "name": "batch_normalization_17", "config": {"beta_regularizer": null, "gamma_constraint": null, "gamma_regularizer": null, "moving_variance_initializer": {"class_name": "Ones", "config": {}}, "epsilon": 0.001, "moving_mean_initializer": {"class_name": "Zeros", "config": {}}, "scale": false, "momentum": 0.99, "gamma_initializer": {"class_name": "Ones", "config": {}}, "axis": 3, "center": true, "trainable": true, "beta_constraint": null, "name": "batch_normalization_17", "beta_initializer": {"class_name": "Zeros", "config": {}}}, "class_name": "BatchNormalization"}, {"inbound_nodes": [[["batch_normalization_14", 0, 0, {}]]], "name": "activation_14", "config": {"activation": "relu", "name": "activation_14", "trainable": true}, "class_name": "Activation"}, {"inbound_nodes": [[["batch_normalization_17", 0, 0, {}]]], "name": "activation_17", "config": {"activation": "relu", "name": "activation_17", "trainable": true}, "class_name": "Activation"}, {"inbound_nodes": [[["mixed0", 0, 0, {}]]], "name": "average_pooling2d_2", "config": {"strides": [1, 1], "data_format": "channels_last", "name": "average_pooling2d_2", "pool_size": [3, 3], "padding": "same", "trainable": true}, "class_name": "AveragePooling2D"}, {"inbound_nodes": [[["mixed0", 0, 0, {}]]], "name": "conv2d_13", "config": {"bias_constraint": null, "activity_regularizer": null, "dilation_rate": [1, 1], "kernel_regularizer": null, "activation": "linear", "bias_regularizer": null, "use_bias": false, "strides": [1, 1], "data_format": "channels_last", "kernel_size": [1, 1], "kernel_constraint": null, "bias_initializer": {"class_name": "Zeros", "config": {}}, "trainable": true, "kernel_initializer": {"class_name": "VarianceScaling", "config": {"scale": 1.0, "distribution": "uniform", "mode": "fan_avg", "seed": null}}, "padding": "same", "filters": 64, "name": "conv2d_13"}, "class_name": "Conv2D"}, {"inbound_nodes": [[["activation_14", 0, 0, {}]]], "name": "conv2d_15", "config": {"bias_constraint": null, "activity_regularizer": null, "dilation_rate": [1, 1], "kernel_regularizer": null, "activation": "linear", "bias_regularizer": null, "use_bias": false, "strides": [1, 1], "data_format": "channels_last", "kernel_size": [5, 5], "kernel_constraint": null, "bias_initializer": {"class_name": "Zeros", "config": {}}, "trainable": true, "kernel_initializer": {"class_name": "VarianceScaling", "config": {"scale": 1.0, "distribution": "uniform", "mode": "fan_avg", "seed": null}}, "padding": "same", "filters": 64, "name": "conv2d_15"}, "class_name": "Conv2D"}, {"inbound_nodes": [[["activation_17", 0, 0, {}]]], "name": "conv2d_18", "config": {"bias_constraint": null, "activity_regularizer": null, "dilation_rate": [1, 1], "kernel_regularizer": null, "activation": "linear", "bias_regularizer": null, "use_bias": false, "strides": [1, 1], "data_format": "channels_last", "kernel_size": [3, 3], "kernel_constraint": null, "bias_initializer": {"class_name": "Zeros", "config": {}}, "trainable": true, "kernel_initializer": {"class_name": "VarianceScaling", "config": {"scale": 1.0, "distribution": "uniform", "mode": "fan_avg", "seed": null}}, "padding": "same", "filters": 96, "name": "conv2d_18"}, "class_name": "Conv2D"}, {"inbound_nodes": [[["average_pooling2d_2", 0, 0, {}]]], "name": "conv2d_19", "config": {"bias_constraint": null, "activity_regularizer": null, "dilation_rate": [1, 1], "kernel_regularizer": null, "activation": "linear", "bias_regularizer": null, "use_bias": false, "strides": [1, 1], "data_format": "channels_last", "kernel_size": [1, 1], "kernel_constraint": null, "bias_initializer": {"class_name": "Zeros", "config": {}}, "trainable": true, "kernel_initializer": {"class_name": "VarianceScaling", "config": {"scale": 1.0, "distribution": "uniform", "mode": "fan_avg", "seed": null}}, "padding": "same", "filters": 64, "name": "conv2d_19"}, "class_name": "Conv2D"}, {"inbound_nodes": [[["conv2d_13", 0, 0, {}]]], "name": "batch_normalization_13", "config": {"beta_regularizer": null, "gamma_constraint": null, "gamma_regularizer": null, "moving_variance_initializer": {"class_name": "Ones", "config": {}}, "epsilon": 0.001, "moving_mean_initializer": {"class_name": "Zeros", "config": {}}, "scale": false, "momentum": 0.99, "gamma_initializer": {"class_name": "Ones", "config": {}}, "axis": 3, "center": true, "trainable": true, "beta_constraint": null, "name": "batch_normalization_13", "beta_initializer": {"class_name": "Zeros", "config": {}}}, "class_name": "BatchNormalization"}, {"inbound_nodes": [[["conv2d_15", 0, 0, {}]]], "name": "batch_normalization_15", "config": {"beta_regularizer": null, "gamma_constraint": null, "gamma_regularizer": null, "moving_variance_initializer": {"class_name": "Ones", "config": {}}, "epsilon": 0.001, "moving_mean_initializer": {"class_name": "Zeros", "config": {}}, "scale": false, "momentum": 0.99, "gamma_initializer": {"class_name": "Ones", "config": {}}, "axis": 3, "center": true, "trainable": true, "beta_constraint": null, "name": "batch_normalization_15", "beta_initializer": {"class_name": "Zeros", "config": {}}}, "class_name": "BatchNormalization"}, {"inbound_nodes": [[["conv2d_18", 0, 0, {}]]], "name": "batch_normalization_18", "config": {"beta_regularizer": null, "gamma_constraint": null, "gamma_regularizer": null, "moving_variance_initializer": {"class_name": "Ones", "config": {}}, "epsilon": 0.001, "moving_mean_initializer": {"class_name": "Zeros", "config": {}}, "scale": false, "momentum": 0.99, "gamma_initializer": {"class_name": "Ones", "config": {}}, "axis": 3, "center": true, "trainable": true, "beta_constraint": null, "name": "batch_normalization_18", "beta_initializer": {"class_name": "Zeros", "config": {}}}, "class_name": "BatchNormalization"}, {"inbound_nodes": [[["conv2d_19", 0, 0, {}]]], "name": "batch_normalization_19", "config": {"beta_regularizer": null, "gamma_constraint": null, "gamma_regularizer": null, "moving_variance_initializer": {"class_name": "Ones", "config": {}}, "epsilon": 0.001, "moving_mean_initializer": {"class_name": "Zeros", "config": {}}, "scale": false, "momentum": 0.99, "gamma_initializer": {"class_name": "Ones", "config": {}}, "axis": 3, "center": true, "trainable": true, "beta_constraint": null, "name": "batch_normalization_19", "beta_initializer": {"class_name": "Zeros", "config": {}}}, "class_name": "BatchNormalization"}, {"inbound_nodes": [[["batch_normalization_13", 0, 0, {}]]], "name": "activation_13", "config": {"activation": "relu", "name": "activation_13", "trainable": true}, "class_name": "Activation"}, {"inbound_nodes": [[["batch_normalization_15", 0, 0, {}]]], "name": "activation_15", "config": {"activation": "relu", "name": "activation_15", "trainable": true}, "class_name": "Activation"}, {"inbound_nodes": [[["batch_normalization_18", 0, 0, {}]]], "name": "activation_18", "config": {"activation": "relu", "name": "activation_18", "trainable": true}, "class_name": "Activation"}, {"inbound_nodes": [[["batch_normalization_19", 0, 0, {}]]], "name": "activation_19", "config": {"activation": "relu", "name": "activation_19", "trainable": true}, "class_name": "Activation"}, {"inbound_nodes": [[["activation_13", 0, 0, {}], ["activation_15", 0, 0, {}], ["activation_18", 0, 0, {}], ["activation_19", 0, 0, {}]]], "name": "mixed1", "config": {"name": "mixed1", "axis": 3, "trainable": true}, "class_name": "Concatenate"}, {"inbound_nodes": [[["mixed1", 0, 0, {}]]], "name": "conv2d_23", "config": {"bias_constraint": null, "activity_regularizer": null, "dilation_rate": [1, 1], "kernel_regularizer": null, "activation": "linear", "bias_regularizer": null, "use_bias": false, "strides": [1, 1], "data_format": "channels_last", "kernel_size": [1, 1], "kernel_constraint": null, "bias_initializer": {"class_name": "Zeros", "config": {}}, "trainable": true, "kernel_initializer": {"class_name": "VarianceScaling", "config": {"scale": 1.0, "distribution": "uniform", "mode": "fan_avg", "seed": null}}, "padding": "same", "filters": 64, "name": "conv2d_23"}, "class_name": "Conv2D"}, {"inbound_nodes": [[["conv2d_23", 0, 0, {}]]], "name": "batch_normalization_23", "config": {"beta_regularizer": null, "gamma_constraint": null, "gamma_regularizer": null, "moving_variance_initializer": {"class_name": "Ones", "config": {}}, "epsilon": 0.001, "moving_mean_initializer": {"class_name": "Zeros", "config": {}}, "scale": false, "momentum": 0.99, "gamma_initializer": {"class_name": "Ones", "config": {}}, "axis": 3, "center": true, "trainable": true, "beta_constraint": null, "name": "batch_normalization_23", "beta_initializer": {"class_name": "Zeros", "config": {}}}, "class_name": "BatchNormalization"}, {"inbound_nodes": [[["batch_normalization_23", 0, 0, {}]]], "name": "activation_23", "config": {"activation": "relu", "name": "activation_23", "trainable": true}, "class_name": "Activation"}, {"inbound_nodes": [[["mixed1", 0, 0, {}]]], "name": "conv2d_21", "config": {"bias_constraint": null, "activity_regularizer": null, "dilation_rate": [1, 1], "kernel_regularizer": null, "activation": "linear", "bias_regularizer": null, "use_bias": false, "strides": [1, 1], "data_format": "channels_last", "kernel_size": [1, 1], "kernel_constraint": null, "bias_initializer": {"class_name": "Zeros", "config": {}}, "trainable": true, "kernel_initializer": {"class_name": "VarianceScaling", "config": {"scale": 1.0, "distribution": "uniform", "mode": "fan_avg", "seed": null}}, "padding": "same", "filters": 48, "name": "conv2d_21"}, "class_name": "Conv2D"}, {"inbound_nodes": [[["activation_23", 0, 0, {}]]], "name": "conv2d_24", "config": {"bias_constraint": null, "activity_regularizer": null, "dilation_rate": [1, 1], "kernel_regularizer": null, "activation": "linear", "bias_regularizer": null, "use_bias": false, "strides": [1, 1], "data_format": "channels_last", "kernel_size": [3, 3], "kernel_constraint": null, "bias_initializer": {"class_name": "Zeros", "config": {}}, "trainable": true, "kernel_initializer": {"class_name": "VarianceScaling", "config": {"scale": 1.0, "distribution": "uniform", "mode": "fan_avg", "seed": null}}, "padding": "same", "filters": 96, "name": "conv2d_24"}, "class_name": "Conv2D"}, {"inbound_nodes": [[["conv2d_21", 0, 0, {}]]], "name": "batch_normalization_21", "config": {"beta_regularizer": null, "gamma_constraint": null, "gamma_regularizer": null, "moving_variance_initializer": {"class_name": "Ones", "config": {}}, "epsilon": 0.001, "moving_mean_initializer": {"class_name": "Zeros", "config": {}}, "scale": false, "momentum": 0.99, "gamma_initializer": {"class_name": "Ones", "config": {}}, "axis": 3, "center": true, "trainable": true, "beta_constraint": null, "name": "batch_normalization_21", "beta_initializer": {"class_name": "Zeros", "config": {}}}, "class_name": "BatchNormalization"}, {"inbound_nodes": [[["conv2d_24", 0, 0, {}]]], "name": "batch_normalization_24", "config": {"beta_regularizer": null, "gamma_constraint": null, "gamma_regularizer": null, "moving_variance_initializer": {"class_name": "Ones", "config": {}}, "epsilon": 0.001, "moving_mean_initializer": {"class_name": "Zeros", "config": {}}, "scale": false, "momentum": 0.99, "gamma_initializer": {"class_name": "Ones", "config": {}}, "axis": 3, "center": true, "trainable": true, "beta_constraint": null, "name": "batch_normalization_24", "beta_initializer": {"class_name": "Zeros", "config": {}}}, "class_name": "BatchNormalization"}, {"inbound_nodes": [[["batch_normalization_21", 0, 0, {}]]], "name": "activation_21", "config": {"activation": "relu", "name": "activation_21", "trainable": true}, "class_name": "Activation"}, {"inbound_nodes": [[["batch_normalization_24", 0, 0, {}]]], "name": "activation_24", "config": {"activation": "relu", "name": "activation_24", "trainable": true}, "class_name": "Activation"}, {"inbound_nodes": [[["mixed1", 0, 0, {}]]], "name": "average_pooling2d_3", "config": {"strides": [1, 1], "data_format": "channels_last", "name": "average_pooling2d_3", "pool_size": [3, 3], "padding": "same", "trainable": true}, "class_name": "AveragePooling2D"}, {"inbound_nodes": [[["mixed1", 0, 0, {}]]], "name": "conv2d_20", "config": {"bias_constraint": null, "activity_regularizer": null, "dilation_rate": [1, 1], "kernel_regularizer": null, "activation": "linear", "bias_regularizer": null, "use_bias": false, "strides": [1, 1], "data_format": "channels_last", "kernel_size": [1, 1], "kernel_constraint": null, "bias_initializer": {"class_name": "Zeros", "config": {}}, "trainable": true, "kernel_initializer": {"class_name": "VarianceScaling", "config": {"scale": 1.0, "distribution": "uniform", "mode": "fan_avg", "seed": null}}, "padding": "same", "filters": 64, "name": "conv2d_20"}, "class_name": "Conv2D"}, {"inbound_nodes": [[["activation_21", 0, 0, {}]]], "name": "conv2d_22", "config": {"bias_constraint": null, "activity_regularizer": null, "dilation_rate": [1, 1], "kernel_regularizer": null, "activation": "linear", "bias_regularizer": null, "use_bias": false, "strides": [1, 1], "data_format": "channels_last", "kernel_size": [5, 5], "kernel_constraint": null, "bias_initializer": {"class_name": "Zeros", "config": {}}, "trainable": true, "kernel_initializer": {"class_name": "VarianceScaling", "config": {"scale": 1.0, "distribution": "uniform", "mode": "fan_avg", "seed": null}}, "padding": "same", "filters": 64, "name": "conv2d_22"}, "class_name": "Conv2D"}, {"inbound_nodes": [[["activation_24", 0, 0, {}]]], "name": "conv2d_25", "config": {"bias_constraint": null, "activity_regularizer": null, "dilation_rate": [1, 1], "kernel_regularizer": null, "activation": "linear", "bias_regularizer": null, "use_bias": false, "strides": [1, 1], "data_format": "channels_last", "kernel_size": [3, 3], "kernel_constraint": null, "bias_initializer": {"class_name": "Zeros", "config": {}}, "trainable": true, "kernel_initializer": {"class_name": "VarianceScaling", "config": {"scale": 1.0, "distribution": "uniform", "mode": "fan_avg", "seed": null}}, "padding": "same", "filters": 96, "name": "conv2d_25"}, "class_name": "Conv2D"}, {"inbound_nodes": [[["average_pooling2d_3", 0, 0, {}]]], "name": "conv2d_26", "config": {"bias_constraint": null, "activity_regularizer": null, "dilation_rate": [1, 1], "kernel_regularizer": null, "activation": "linear", "bias_regularizer": null, "use_bias": false, "strides": [1, 1], "data_format": "channels_last", "kernel_size": [1, 1], "kernel_constraint": null, "bias_initializer": {"class_name": "Zeros", "config": {}}, "trainable": true, "kernel_initializer": {"class_name": "VarianceScaling", "config": {"scale": 1.0, "distribution": "uniform", "mode": "fan_avg", "seed": null}}, "padding": "same", "filters": 64, "name": "conv2d_26"}, "class_name": "Conv2D"}, {"inbound_nodes": [[["conv2d_20", 0, 0, {}]]], "name": "batch_normalization_20", "config": {"beta_regularizer": null, "gamma_constraint": null, "gamma_regularizer": null, "moving_variance_initializer": {"class_name": "Ones", "config": {}}, "epsilon": 0.001, "moving_mean_initializer": {"class_name": "Zeros", "config": {}}, "scale": false, "momentum": 0.99, "gamma_initializer": {"class_name": "Ones", "config": {}}, "axis": 3, "center": true, "trainable": true, "beta_constraint": null, "name": "batch_normalization_20", "beta_initializer": {"class_name": "Zeros", "config": {}}}, "class_name": "BatchNormalization"}, {"inbound_nodes": [[["conv2d_22", 0, 0, {}]]], "name": "batch_normalization_22", "config": {"beta_regularizer": null, "gamma_constraint": null, "gamma_regularizer": null, "moving_variance_initializer": {"class_name": "Ones", "config": {}}, "epsilon": 0.001, "moving_mean_initializer": {"class_name": "Zeros", "config": {}}, "scale": false, "momentum": 0.99, "gamma_initializer": {"class_name": "Ones", "config": {}}, "axis": 3, "center": true, "trainable": true, "beta_constraint": null, "name": "batch_normalization_22", "beta_initializer": {"class_name": "Zeros", "config": {}}}, "class_name": "BatchNormalization"}, {"inbound_nodes": [[["conv2d_25", 0, 0, {}]]], "name": "batch_normalization_25", "config": {"beta_regularizer": null, "gamma_constraint": null, "gamma_regularizer": null, "moving_variance_initializer": {"class_name": "Ones", "config": {}}, "epsilon": 0.001, "moving_mean_initializer": {"class_name": "Zeros", "config": {}}, "scale": false, "momentum": 0.99, "gamma_initializer": {"class_name": "Ones", "config": {}}, "axis": 3, "center": true, "trainable": true, "beta_constraint": null, "name": "batch_normalization_25", "beta_initializer": {"class_name": "Zeros", "config": {}}}, "class_name": "BatchNormalization"}, {"inbound_nodes": [[["conv2d_26", 0, 0, {}]]], "name": "batch_normalization_26", "config": {"beta_regularizer": null, "gamma_constraint": null, "gamma_regularizer": null, "moving_variance_initializer": {"class_name": "Ones", "config": {}}, "epsilon": 0.001, "moving_mean_initializer": {"class_name": "Zeros", "config": {}}, "scale": false, "momentum": 0.99, "gamma_initializer": {"class_name": "Ones", "config": {}}, "axis": 3, "center": true, "trainable": true, "beta_constraint": null, "name": "batch_normalization_26", "beta_initializer": {"class_name": "Zeros", "config": {}}}, "class_name": "BatchNormalization"}, {"inbound_nodes": [[["batch_normalization_20", 0, 0, {}]]], "name": "activation_20", "config": {"activation": "relu", "name": "activation_20", "trainable": true}, "class_name": "Activation"}, {"inbound_nodes": [[["batch_normalization_22", 0, 0, {}]]], "name": "activation_22", "config": {"activation": "relu", "name": "activation_22", "trainable": true}, "class_name": "Activation"}, {"inbound_nodes": [[["batch_normalization_25", 0, 0, {}]]], "name": "activation_25", "config": {"activation": "relu", "name": "activation_25", "trainable": true}, "class_name": "Activation"}, {"inbound_nodes": [[["batch_normalization_26", 0, 0, {}]]], "name": "activation_26", "config": {"activation": "relu", "name": "activation_26", "trainable": true}, "class_name": "Activation"}, {"inbound_nodes": [[["activation_20", 0, 0, {}], ["activation_22", 0, 0, {}], ["activation_25", 0, 0, {}], ["activation_26", 0, 0, {}]]], "name": "mixed2", "config": {"name": "mixed2", "axis": 3, "trainable": true}, "class_name": "Concatenate"}, {"inbound_nodes": [[["mixed2", 0, 0, {}]]], "name": "conv2d_28", "config": {"bias_constraint": null, "activity_regularizer": null, "dilation_rate": [1, 1], "kernel_regularizer": null, "activation": "linear", "bias_regularizer": null, "use_bias": false, "strides": [1, 1], "data_format": "channels_last", "kernel_size": [1, 1], "kernel_constraint": null, "bias_initializer": {"class_name": "Zeros", "config": {}}, "trainable": true, "kernel_initializer": {"class_name": "VarianceScaling", "config": {"scale": 1.0, "distribution": "uniform", "mode": "fan_avg", "seed": null}}, "padding": "same", "filters": 64, "name": "conv2d_28"}, "class_name": "Conv2D"}, {"inbound_nodes": [[["conv2d_28", 0, 0, {}]]], "name": "batch_normalization_28", "config": {"beta_regularizer": null, "gamma_constraint": null, "gamma_regularizer": null, "moving_variance_initializer": {"class_name": "Ones", "config": {}}, "epsilon": 0.001, "moving_mean_initializer": {"class_name": "Zeros", "config": {}}, "scale": false, "momentum": 0.99, "gamma_initializer": {"class_name": "Ones", "config": {}}, "axis": 3, "center": true, "trainable": true, "beta_constraint": null, "name": "batch_normalization_28", "beta_initializer": {"class_name": "Zeros", "config": {}}}, "class_name": "BatchNormalization"}, {"inbound_nodes": [[["batch_normalization_28", 0, 0, {}]]], "name": "activation_28", "config": {"activation": "relu", "name": "activation_28", "trainable": true}, "class_name": "Activation"}, {"inbound_nodes": [[["activation_28", 0, 0, {}]]], "name": "conv2d_29", "config": {"bias_constraint": null, "activity_regularizer": null, "dilation_rate": [1, 1], "kernel_regularizer": null, "activation": "linear", "bias_regularizer": null, "use_bias": false, "strides": [1, 1], "data_format": "channels_last", "kernel_size": [3, 3], "kernel_constraint": null, "bias_initializer": {"class_name": "Zeros", "config": {}}, "trainable": true, "kernel_initializer": {"class_name": "VarianceScaling", "config": {"scale": 1.0, "distribution": "uniform", "mode": "fan_avg", "seed": null}}, "padding": "same", "filters": 96, "name": "conv2d_29"}, "class_name": "Conv2D"}, {"inbound_nodes": [[["conv2d_29", 0, 0, {}]]], "name": "batch_normalization_29", "config": {"beta_regularizer": null, "gamma_constraint": null, "gamma_regularizer": null, "moving_variance_initializer": {"class_name": "Ones", "config": {}}, "epsilon": 0.001, "moving_mean_initializer": {"class_name": "Zeros", "config": {}}, "scale": false, "momentum": 0.99, "gamma_initializer": {"class_name": "Ones", "config": {}}, "axis": 3, "center": true, "trainable": true, "beta_constraint": null, "name": "batch_normalization_29", "beta_initializer": {"class_name": "Zeros", "config": {}}}, "class_name": "BatchNormalization"}, {"inbound_nodes": [[["batch_normalization_29", 0, 0, {}]]], "name": "activation_29", "config": {"activation": "relu", "name": "activation_29", "trainable": true}, "class_name": "Activation"}, {"inbound_nodes": [[["mixed2", 0, 0, {}]]], "name": "conv2d_27", "config": {"bias_constraint": null, "activity_regularizer": null, "dilation_rate": [1, 1], "kernel_regularizer": null, "activation": "linear", "bias_regularizer": null, "use_bias": false, "strides": [2, 2], "data_format": "channels_last", "kernel_size": [3, 3], "kernel_constraint": null, "bias_initializer": {"class_name": "Zeros", "config": {}}, "trainable": true, "kernel_initializer": {"class_name": "VarianceScaling", "config": {"scale": 1.0, "distribution": "uniform", "mode": "fan_avg", "seed": null}}, "padding": "valid", "filters": 384, "name": "conv2d_27"}, "class_name": "Conv2D"}, {"inbound_nodes": [[["activation_29", 0, 0, {}]]], "name": "conv2d_30", "config": {"bias_constraint": null, "activity_regularizer": null, "dilation_rate": [1, 1], "kernel_regularizer": null, "activation": "linear", "bias_regularizer": null, "use_bias": false, "strides": [2, 2], "data_format": "channels_last", "kernel_size": [3, 3], "kernel_constraint": null, "bias_initializer": {"class_name": "Zeros", "config": {}}, "trainable": true, "kernel_initializer": {"class_name": "VarianceScaling", "config": {"scale": 1.0, "distribution": "uniform", "mode": "fan_avg", "seed": null}}, "padding": "valid", "filters": 96, "name": "conv2d_30"}, "class_name": "Conv2D"}, {"inbound_nodes": [[["conv2d_27", 0, 0, {}]]], "name": "batch_normalization_27", "config": {"beta_regularizer": null, "gamma_constraint": null, "gamma_regularizer": null, "moving_variance_initializer": {"class_name": "Ones", "config": {}}, "epsilon": 0.001, "moving_mean_initializer": {"class_name": "Zeros", "config": {}}, "scale": false, "momentum": 0.99, "gamma_initializer": {"class_name": "Ones", "config": {}}, "axis": 3, "center": true, "trainable": true, "beta_constraint": null, "name": "batch_normalization_27", "beta_initializer": {"class_name": "Zeros", "config": {}}}, "class_name": "BatchNormalization"}, {"inbound_nodes": [[["conv2d_30", 0, 0, {}]]], "name": "batch_normalization_30", "config": {"beta_regularizer": null, "gamma_constraint": null, "gamma_regularizer": null, "moving_variance_initializer": {"class_name": "Ones", "config": {}}, "epsilon": 0.001, "moving_mean_initializer": {"class_name": "Zeros", "config": {}}, "scale": false, "momentum": 0.99, "gamma_initializer": {"class_name": "Ones", "config": {}}, "axis": 3, "center": true, "trainable": true, "beta_constraint": null, "name": "batch_normalization_30", "beta_initializer": {"class_name": "Zeros", "config": {}}}, "class_name": "BatchNormalization"}, {"inbound_nodes": [[["batch_normalization_27", 0, 0, {}]]], "name": "activation_27", "config": {"activation": "relu", "name": "activation_27", "trainable": true}, "class_name": "Activation"}, {"inbound_nodes": [[["batch_normalization_30", 0, 0, {}]]], "name": "activation_30", "config": {"activation": "relu", "name": "activation_30", "trainable": true}, "class_name": "Activation"}, {"inbound_nodes": [[["mixed2", 0, 0, {}]]], "name": "max_pooling2d_3", "config": {"strides": [2, 2], "data_format": "channels_last", "name": "max_pooling2d_3", "pool_size": [3, 3], "padding": "valid", "trainable": true}, "class_name": "MaxPooling2D"}, {"inbound_nodes": [[["activation_27", 0, 0, {}], ["activation_30", 0, 0, {}], ["max_pooling2d_3", 0, 0, {}]]], "name": "mixed3", "config": {"name": "mixed3", "axis": 3, "trainable": true}, "class_name": "Concatenate"}, {"inbound_nodes": [[["mixed3", 0, 0, {}]]], "name": "conv2d_35", "config": {"bias_constraint": null, "activity_regularizer": null, "dilation_rate": [1, 1], "kernel_regularizer": null, "activation": "linear", "bias_regularizer": null, "use_bias": false, "strides": [1, 1], "data_format": "channels_last", "kernel_size": [1, 1], "kernel_constraint": null, "bias_initializer": {"class_name": "Zeros", "config": {}}, "trainable": true, "kernel_initializer": {"class_name": "VarianceScaling", "config": {"scale": 1.0, "distribution": "uniform", "mode": "fan_avg", "seed": null}}, "padding": "same", "filters": 128, "name": "conv2d_35"}, "class_name": "Conv2D"}, {"inbound_nodes": [[["conv2d_35", 0, 0, {}]]], "name": "batch_normalization_35", "config": {"beta_regularizer": null, "gamma_constraint": null, "gamma_regularizer": null, "moving_variance_initializer": {"class_name": "Ones", "config": {}}, "epsilon": 0.001, "moving_mean_initializer": {"class_name": "Zeros", "config": {}}, "scale": false, "momentum": 0.99, "gamma_initializer": {"class_name": "Ones", "config": {}}, "axis": 3, "center": true, "trainable": true, "beta_constraint": null, "name": "batch_normalization_35", "beta_initializer": {"class_name": "Zeros", "config": {}}}, "class_name": "BatchNormalization"}, {"inbound_nodes": [[["batch_normalization_35", 0, 0, {}]]], "name": "activation_35", "config": {"activation": "relu", "name": "activation_35", "trainable": true}, "class_name": "Activation"}, {"inbound_nodes": [[["activation_35", 0, 0, {}]]], "name": "conv2d_36", "config": {"bias_constraint": null, "activity_regularizer": null, "dilation_rate": [1, 1], "kernel_regularizer": null, "activation": "linear", "bias_regularizer": null, "use_bias": false, "strides": [1, 1], "data_format": "channels_last", "kernel_size": [7, 1], "kernel_constraint": null, "bias_initializer": {"class_name": "Zeros", "config": {}}, "trainable": true, "kernel_initializer": {"class_name": "VarianceScaling", "config": {"scale": 1.0, "distribution": "uniform", "mode": "fan_avg", "seed": null}}, "padding": "same", "filters": 128, "name": "conv2d_36"}, "class_name": "Conv2D"}, {"inbound_nodes": [[["conv2d_36", 0, 0, {}]]], "name": "batch_normalization_36", "config": {"beta_regularizer": null, "gamma_constraint": null, "gamma_regularizer": null, "moving_variance_initializer": {"class_name": "Ones", "config": {}}, "epsilon": 0.001, "moving_mean_initializer": {"class_name": "Zeros", "config": {}}, "scale": false, "momentum": 0.99, "gamma_initializer": {"class_name": "Ones", "config": {}}, "axis": 3, "center": true, "trainable": true, "beta_constraint": null, "name": "batch_normalization_36", "beta_initializer": {"class_name": "Zeros", "config": {}}}, "class_name": "BatchNormalization"}, {"inbound_nodes": [[["batch_normalization_36", 0, 0, {}]]], "name": "activation_36", "config": {"activation": "relu", "name": "activation_36", "trainable": true}, "class_name": "Activation"}, {"inbound_nodes": [[["mixed3", 0, 0, {}]]], "name": "conv2d_32", "config": {"bias_constraint": null, "activity_regularizer": null, "dilation_rate": [1, 1], "kernel_regularizer": null, "activation": "linear", "bias_regularizer": null, "use_bias": false, "strides": [1, 1], "data_format": "channels_last", "kernel_size": [1, 1], "kernel_constraint": null, "bias_initializer": {"class_name": "Zeros", "config": {}}, "trainable": true, "kernel_initializer": {"class_name": "VarianceScaling", "config": {"scale": 1.0, "distribution": "uniform", "mode": "fan_avg", "seed": null}}, "padding": "same", "filters": 128, "name": "conv2d_32"}, "class_name": "Conv2D"}, {"inbound_nodes": [[["activation_36", 0, 0, {}]]], "name": "conv2d_37", "config": {"bias_constraint": null, "activity_regularizer": null, "dilation_rate": [1, 1], "kernel_regularizer": null, "activation": "linear", "bias_regularizer": null, "use_bias": false, "strides": [1, 1], "data_format": "channels_last", "kernel_size": [1, 7], "kernel_constraint": null, "bias_initializer": {"class_name": "Zeros", "config": {}}, "trainable": true, "kernel_initializer": {"class_name": "VarianceScaling", "config": {"scale": 1.0, "distribution": "uniform", "mode": "fan_avg", "seed": null}}, "padding": "same", "filters": 128, "name": "conv2d_37"}, "class_name": "Conv2D"}, {"inbound_nodes": [[["conv2d_32", 0, 0, {}]]], "name": "batch_normalization_32", "config": {"beta_regularizer": null, "gamma_constraint": null, "gamma_regularizer": null, "moving_variance_initializer": {"class_name": "Ones", "config": {}}, "epsilon": 0.001, "moving_mean_initializer": {"class_name": "Zeros", "config": {}}, "scale": false, "momentum": 0.99, "gamma_initializer": {"class_name": "Ones", "config": {}}, "axis": 3, "center": true, "trainable": true, "beta_constraint": null, "name": "batch_normalization_32", "beta_initializer": {"class_name": "Zeros", "config": {}}}, "class_name": "BatchNormalization"}, {"inbound_nodes": [[["conv2d_37", 0, 0, {}]]], "name": "batch_normalization_37", "config": {"beta_regularizer": null, "gamma_constraint": null, "gamma_regularizer": null, "moving_variance_initializer": {"class_name": "Ones", "config": {}}, "epsilon": 0.001, "moving_mean_initializer": {"class_name": "Zeros", "config": {}}, "scale": false, "momentum": 0.99, "gamma_initializer": {"class_name": "Ones", "config": {}}, "axis": 3, "center": true, "trainable": true, "beta_constraint": null, "name": "batch_normalization_37", "beta_initializer": {"class_name": "Zeros", "config": {}}}, "class_name": "BatchNormalization"}, {"inbound_nodes": [[["batch_normalization_32", 0, 0, {}]]], "name": "activation_32", "config": {"activation": "relu", "name": "activation_32", "trainable": true}, "class_name": "Activation"}, {"inbound_nodes": [[["batch_normalization_37", 0, 0, {}]]], "name": "activation_37", "config": {"activation": "relu", "name": "activation_37", "trainable": true}, "class_name": "Activation"}, {"inbound_nodes": [[["activation_32", 0, 0, {}]]], "name": "conv2d_33", "config": {"bias_constraint": null, "activity_regularizer": null, "dilation_rate": [1, 1], "kernel_regularizer": null, "activation": "linear", "bias_regularizer": null, "use_bias": false, "strides": [1, 1], "data_format": "channels_last", "kernel_size": [1, 7], "kernel_constraint": null, "bias_initializer": {"class_name": "Zeros", "config": {}}, "trainable": true, "kernel_initializer": {"class_name": "VarianceScaling", "config": {"scale": 1.0, "distribution": "uniform", "mode": "fan_avg", "seed": null}}, "padding": "same", "filters": 128, "name": "conv2d_33"}, "class_name": "Conv2D"}, {"inbound_nodes": [[["activation_37", 0, 0, {}]]], "name": "conv2d_38", "config": {"bias_constraint": null, "activity_regularizer": null, "dilation_rate": [1, 1], "kernel_regularizer": null, "activation": "linear", "bias_regularizer": null, "use_bias": false, "strides": [1, 1], "data_format": "channels_last", "kernel_size": [7, 1], "kernel_constraint": null, "bias_initializer": {"class_name": "Zeros", "config": {}}, "trainable": true, "kernel_initializer": {"class_name": "VarianceScaling", "config": {"scale": 1.0, "distribution": "uniform", "mode": "fan_avg", "seed": null}}, "padding": "same", "filters": 128, "name": "conv2d_38"}, "class_name": "Conv2D"}, {"inbound_nodes": [[["conv2d_33", 0, 0, {}]]], "name": "batch_normalization_33", "config": {"beta_regularizer": null, "gamma_constraint": null, "gamma_regularizer": null, "moving_variance_initializer": {"class_name": "Ones", "config": {}}, "epsilon": 0.001, "moving_mean_initializer": {"class_name": "Zeros", "config": {}}, "scale": false, "momentum": 0.99, "gamma_initializer": {"class_name": "Ones", "config": {}}, "axis": 3, "center": true, "trainable": true, "beta_constraint": null, "name": "batch_normalization_33", "beta_initializer": {"class_name": "Zeros", "config": {}}}, "class_name": "BatchNormalization"}, {"inbound_nodes": [[["conv2d_38", 0, 0, {}]]], "name": "batch_normalization_38", "config": {"beta_regularizer": null, "gamma_constraint": null, "gamma_regularizer": null, "moving_variance_initializer": {"class_name": "Ones", "config": {}}, "epsilon": 0.001, "moving_mean_initializer": {"class_name": "Zeros", "config": {}}, "scale": false, "momentum": 0.99, "gamma_initializer": {"class_name": "Ones", "config": {}}, "axis": 3, "center": true, "trainable": true, "beta_constraint": null, "name": "batch_normalization_38", "beta_initializer": {"class_name": "Zeros", "config": {}}}, "class_name": "BatchNormalization"}, {"inbound_nodes": [[["batch_normalization_33", 0, 0, {}]]], "name": "activation_33", "config": {"activation": "relu", "name": "activation_33", "trainable": true}, "class_name": "Activation"}, {"inbound_nodes": [[["batch_normalization_38", 0, 0, {}]]], "name": "activation_38", "config": {"activation": "relu", "name": "activation_38", "trainable": true}, "class_name": "Activation"}, {"inbound_nodes": [[["mixed3", 0, 0, {}]]], "name": "average_pooling2d_4", "config": {"strides": [1, 1], "data_format": "channels_last", "name": "average_pooling2d_4", "pool_size": [3, 3], "padding": "same", "trainable": true}, "class_name": "AveragePooling2D"}, {"inbound_nodes": [[["mixed3", 0, 0, {}]]], "name": "conv2d_31", "config": {"bias_constraint": null, "activity_regularizer": null, "dilation_rate": [1, 1], "kernel_regularizer": null, "activation": "linear", "bias_regularizer": null, "use_bias": false, "strides": [1, 1], "data_format": "channels_last", "kernel_size": [1, 1], "kernel_constraint": null, "bias_initializer": {"class_name": "Zeros", "config": {}}, "trainable": true, "kernel_initializer": {"class_name": "VarianceScaling", "config": {"scale": 1.0, "distribution": "uniform", "mode": "fan_avg", "seed": null}}, "padding": "same", "filters": 192, "name": "conv2d_31"}, "class_name": "Conv2D"}, {"inbound_nodes": [[["activation_33", 0, 0, {}]]], "name": "conv2d_34", "config": {"bias_constraint": null, "activity_regularizer": null, "dilation_rate": [1, 1], "kernel_regularizer": null, "activation": "linear", "bias_regularizer": null, "use_bias": false, "strides": [1, 1], "data_format": "channels_last", "kernel_size": [7, 1], "kernel_constraint": null, "bias_initializer": {"class_name": "Zeros", "config": {}}, "trainable": true, "kernel_initializer": {"class_name": "VarianceScaling", "config": {"scale": 1.0, "distribution": "uniform", "mode": "fan_avg", "seed": null}}, "padding": "same", "filters": 192, "name": "conv2d_34"}, "class_name": "Conv2D"}, {"inbound_nodes": [[["activation_38", 0, 0, {}]]], "name": "conv2d_39", "config": {"bias_constraint": null, "activity_regularizer": null, "dilation_rate": [1, 1], "kernel_regularizer": null, "activation": "linear", "bias_regularizer": null, "use_bias": false, "strides": [1, 1], "data_format": "channels_last", "kernel_size": [1, 7], "kernel_constraint": null, "bias_initializer": {"class_name": "Zeros", "config": {}}, "trainable": true, "kernel_initializer": {"class_name": "VarianceScaling", "config": {"scale": 1.0, "distribution": "uniform", "mode": "fan_avg", "seed": null}}, "padding": "same", "filters": 192, "name": "conv2d_39"}, "class_name": "Conv2D"}, {"inbound_nodes": [[["average_pooling2d_4", 0, 0, {}]]], "name": "conv2d_40", "config": {"bias_constraint": null, "activity_regularizer": null, "dilation_rate": [1, 1], "kernel_regularizer": null, "activation": "linear", "bias_regularizer": null, "use_bias": false, "strides": [1, 1], "data_format": "channels_last", "kernel_size": [1, 1], "kernel_constraint": null, "bias_initializer": {"class_name": "Zeros", "config": {}}, "trainable": true, "kernel_initializer": {"class_name": "VarianceScaling", "config": {"scale": 1.0, "distribution": "uniform", "mode": "fan_avg", "seed": null}}, "padding": "same", "filters": 192, "name": "conv2d_40"}, "class_name": "Conv2D"}, {"inbound_nodes": [[["conv2d_31", 0, 0, {}]]], "name": "batch_normalization_31", "config": {"beta_regularizer": null, "gamma_constraint": null, "gamma_regularizer": null, "moving_variance_initializer": {"class_name": "Ones", "config": {}}, "epsilon": 0.001, "moving_mean_initializer": {"class_name": "Zeros", "config": {}}, "scale": false, "momentum": 0.99, "gamma_initializer": {"class_name": "Ones", "config": {}}, "axis": 3, "center": true, "trainable": true, "beta_constraint": null, "name": "batch_normalization_31", "beta_initializer": {"class_name": "Zeros", "config": {}}}, "class_name": "BatchNormalization"}, {"inbound_nodes": [[["conv2d_34", 0, 0, {}]]], "name": "batch_normalization_34", "config": {"beta_regularizer": null, "gamma_constraint": null, "gamma_regularizer": null, "moving_variance_initializer": {"class_name": "Ones", "config": {}}, "epsilon": 0.001, "moving_mean_initializer": {"class_name": "Zeros", "config": {}}, "scale": false, "momentum": 0.99, "gamma_initializer": {"class_name": "Ones", "config": {}}, "axis": 3, "center": true, "trainable": true, "beta_constraint": null, "name": "batch_normalization_34", "beta_initializer": {"class_name": "Zeros", "config": {}}}, "class_name": "BatchNormalization"}, {"inbound_nodes": [[["conv2d_39", 0, 0, {}]]], "name": "batch_normalization_39", "config": {"beta_regularizer": null, "gamma_constraint": null, "gamma_regularizer": null, "moving_variance_initializer": {"class_name": "Ones", "config": {}}, "epsilon": 0.001, "moving_mean_initializer": {"class_name": "Zeros", "config": {}}, "scale": false, "momentum": 0.99, "gamma_initializer": {"class_name": "Ones", "config": {}}, "axis": 3, "center": true, "trainable": true, "beta_constraint": null, "name": "batch_normalization_39", "beta_initializer": {"class_name": "Zeros", "config": {}}}, "class_name": "BatchNormalization"}, {"inbound_nodes": [[["conv2d_40", 0, 0, {}]]], "name": "batch_normalization_40", "config": {"beta_regularizer": null, "gamma_constraint": null, "gamma_regularizer": null, "moving_variance_initializer": {"class_name": "Ones", "config": {}}, "epsilon": 0.001, "moving_mean_initializer": {"class_name": "Zeros", "config": {}}, "scale": false, "momentum": 0.99, "gamma_initializer": {"class_name": "Ones", "config": {}}, "axis": 3, "center": true, "trainable": true, "beta_constraint": null, "name": "batch_normalization_40", "beta_initializer": {"class_name": "Zeros", "config": {}}}, "class_name": "BatchNormalization"}, {"inbound_nodes": [[["batch_normalization_31", 0, 0, {}]]], "name": "activation_31", "config": {"activation": "relu", "name": "activation_31", "trainable": true}, "class_name": "Activation"}, {"inbound_nodes": [[["batch_normalization_34", 0, 0, {}]]], "name": "activation_34", "config": {"activation": "relu", "name": "activation_34", "trainable": true}, "class_name": "Activation"}, {"inbound_nodes": [[["batch_normalization_39", 0, 0, {}]]], "name": "activation_39", "config": {"activation": "relu", "name": "activation_39", "trainable": true}, "class_name": "Activation"}, {"inbound_nodes": [[["batch_normalization_40", 0, 0, {}]]], "name": "activation_40", "config": {"activation": "relu", "name": "activation_40", "trainable": true}, "class_name": "Activation"}, {"inbound_nodes": [[["activation_31", 0, 0, {}], ["activation_34", 0, 0, {}], ["activation_39", 0, 0, {}], ["activation_40", 0, 0, {}]]], "name": "mixed4", "config": {"name": "mixed4", "axis": 3, "trainable": true}, "class_name": "Concatenate"}, {"inbound_nodes": [[["mixed4", 0, 0, {}]]], "name": "conv2d_45", "config": {"bias_constraint": null, "activity_regularizer": null, "dilation_rate": [1, 1], "kernel_regularizer": null, "activation": "linear", "bias_regularizer": null, "use_bias": false, "strides": [1, 1], "data_format": "channels_last", "kernel_size": [1, 1], "kernel_constraint": null, "bias_initializer": {"class_name": "Zeros", "config": {}}, "trainable": true, "kernel_initializer": {"class_name": "VarianceScaling", "config": {"scale": 1.0, "distribution": "uniform", "mode": "fan_avg", "seed": null}}, "padding": "same", "filters": 160, "name": "conv2d_45"}, "class_name": "Conv2D"}, {"inbound_nodes": [[["conv2d_45", 0, 0, {}]]], "name": "batch_normalization_45", "config": {"beta_regularizer": null, "gamma_constraint": null, "gamma_regularizer": null, "moving_variance_initializer": {"class_name": "Ones", "config": {}}, "epsilon": 0.001, "moving_mean_initializer": {"class_name": "Zeros", "config": {}}, "scale": false, "momentum": 0.99, "gamma_initializer": {"class_name": "Ones", "config": {}}, "axis": 3, "center": true, "trainable": true, "beta_constraint": null, "name": "batch_normalization_45", "beta_initializer": {"class_name": "Zeros", "config": {}}}, "class_name": "BatchNormalization"}, {"inbound_nodes": [[["batch_normalization_45", 0, 0, {}]]], "name": "activation_45", "config": {"activation": "relu", "name": "activation_45", "trainable": true}, "class_name": "Activation"}, {"inbound_nodes": [[["activation_45", 0, 0, {}]]], "name": "conv2d_46", "config": {"bias_constraint": null, "activity_regularizer": null, "dilation_rate": [1, 1], "kernel_regularizer": null, "activation": "linear", "bias_regularizer": null, "use_bias": false, "strides": [1, 1], "data_format": "channels_last", "kernel_size": [7, 1], "kernel_constraint": null, "bias_initializer": {"class_name": "Zeros", "config": {}}, "trainable": true, "kernel_initializer": {"class_name": "VarianceScaling", "config": {"scale": 1.0, "distribution": "uniform", "mode": "fan_avg", "seed": null}}, "padding": "same", "filters": 160, "name": "conv2d_46"}, "class_name": "Conv2D"}, {"inbound_nodes": [[["conv2d_46", 0, 0, {}]]], "name": "batch_normalization_46", "config": {"beta_regularizer": null, "gamma_constraint": null, "gamma_regularizer": null, "moving_variance_initializer": {"class_name": "Ones", "config": {}}, "epsilon": 0.001, "moving_mean_initializer": {"class_name": "Zeros", "config": {}}, "scale": false, "momentum": 0.99, "gamma_initializer": {"class_name": "Ones", "config": {}}, "axis": 3, "center": true, "trainable": true, "beta_constraint": null, "name": "batch_normalization_46", "beta_initializer": {"class_name": "Zeros", "config": {}}}, "class_name": "BatchNormalization"}, {"inbound_nodes": [[["batch_normalization_46", 0, 0, {}]]], "name": "activation_46", "config": {"activation": "relu", "name": "activation_46", "trainable": true}, "class_name": "Activation"}, {"inbound_nodes": [[["mixed4", 0, 0, {}]]], "name": "conv2d_42", "config": {"bias_constraint": null, "activity_regularizer": null, "dilation_rate": [1, 1], "kernel_regularizer": null, "activation": "linear", "bias_regularizer": null, "use_bias": false, "strides": [1, 1], "data_format": "channels_last", "kernel_size": [1, 1], "kernel_constraint": null, "bias_initializer": {"class_name": "Zeros", "config": {}}, "trainable": true, "kernel_initializer": {"class_name": "VarianceScaling", "config": {"scale": 1.0, "distribution": "uniform", "mode": "fan_avg", "seed": null}}, "padding": "same", "filters": 160, "name": "conv2d_42"}, "class_name": "Conv2D"}, {"inbound_nodes": [[["activation_46", 0, 0, {}]]], "name": "conv2d_47", "config": {"bias_constraint": null, "activity_regularizer": null, "dilation_rate": [1, 1], "kernel_regularizer": null, "activation": "linear", "bias_regularizer": null, "use_bias": false, "strides": [1, 1], "data_format": "channels_last", "kernel_size": [1, 7], "kernel_constraint": null, "bias_initializer": {"class_name": "Zeros", "config": {}}, "trainable": true, "kernel_initializer": {"class_name": "VarianceScaling", "config": {"scale": 1.0, "distribution": "uniform", "mode": "fan_avg", "seed": null}}, "padding": "same", "filters": 160, "name": "conv2d_47"}, "class_name": "Conv2D"}, {"inbound_nodes": [[["conv2d_42", 0, 0, {}]]], "name": "batch_normalization_42", "config": {"beta_regularizer": null, "gamma_constraint": null, "gamma_regularizer": null, "moving_variance_initializer": {"class_name": "Ones", "config": {}}, "epsilon": 0.001, "moving_mean_initializer": {"class_name": "Zeros", "config": {}}, "scale": false, "momentum": 0.99, "gamma_initializer": {"class_name": "Ones", "config": {}}, "axis": 3, "center": true, "trainable": true, "beta_constraint": null, "name": "batch_normalization_42", "beta_initializer": {"class_name": "Zeros", "config": {}}}, "class_name": "BatchNormalization"}, {"inbound_nodes": [[["conv2d_47", 0, 0, {}]]], "name": "batch_normalization_47", "config": {"beta_regularizer": null, "gamma_constraint": null, "gamma_regularizer": null, "moving_variance_initializer": {"class_name": "Ones", "config": {}}, "epsilon": 0.001, "moving_mean_initializer": {"class_name": "Zeros", "config": {}}, "scale": false, "momentum": 0.99, "gamma_initializer": {"class_name": "Ones", "config": {}}, "axis": 3, "center": true, "trainable": true, "beta_constraint": null, "name": "batch_normalization_47", "beta_initializer": {"class_name": "Zeros", "config": {}}}, "class_name": "BatchNormalization"}, {"inbound_nodes": [[["batch_normalization_42", 0, 0, {}]]], "name": "activation_42", "config": {"activation": "relu", "name": "activation_42", "trainable": true}, "class_name": "Activation"}, {"inbound_nodes": [[["batch_normalization_47", 0, 0, {}]]], "name": "activation_47", "config": {"activation": "relu", "name": "activation_47", "trainable": true}, "class_name": "Activation"}, {"inbound_nodes": [[["activation_42", 0, 0, {}]]], "name": "conv2d_43", "config": {"bias_constraint": null, "activity_regularizer": null, "dilation_rate": [1, 1], "kernel_regularizer": null, "activation": "linear", "bias_regularizer": null, "use_bias": false, "strides": [1, 1], "data_format": "channels_last", "kernel_size": [1, 7], "kernel_constraint": null, "bias_initializer": {"class_name": "Zeros", "config": {}}, "trainable": true, "kernel_initializer": {"class_name": "VarianceScaling", "config": {"scale": 1.0, "distribution": "uniform", "mode": "fan_avg", "seed": null}}, "padding": "same", "filters": 160, "name": "conv2d_43"}, "class_name": "Conv2D"}, {"inbound_nodes": [[["activation_47", 0, 0, {}]]], "name": "conv2d_48", "config": {"bias_constraint": null, "activity_regularizer": null, "dilation_rate": [1, 1], "kernel_regularizer": null, "activation": "linear", "bias_regularizer": null, "use_bias": false, "strides": [1, 1], "data_format": "channels_last", "kernel_size": [7, 1], "kernel_constraint": null, "bias_initializer": {"class_name": "Zeros", "config": {}}, "trainable": true, "kernel_initializer": {"class_name": "VarianceScaling", "config": {"scale": 1.0, "distribution": "uniform", "mode": "fan_avg", "seed": null}}, "padding": "same", "filters": 160, "name": "conv2d_48"}, "class_name": "Conv2D"}, {"inbound_nodes": [[["conv2d_43", 0, 0, {}]]], "name": "batch_normalization_43", "config": {"beta_regularizer": null, "gamma_constraint": null, "gamma_regularizer": null, "moving_variance_initializer": {"class_name": "Ones", "config": {}}, "epsilon": 0.001, "moving_mean_initializer": {"class_name": "Zeros", "config": {}}, "scale": false, "momentum": 0.99, "gamma_initializer": {"class_name": "Ones", "config": {}}, "axis": 3, "center": true, "trainable": true, "beta_constraint": null, "name": "batch_normalization_43", "beta_initializer": {"class_name": "Zeros", "config": {}}}, "class_name": "BatchNormalization"}, {"inbound_nodes": [[["conv2d_48", 0, 0, {}]]], "name": "batch_normalization_48", "config": {"beta_regularizer": null, "gamma_constraint": null, "gamma_regularizer": null, "moving_variance_initializer": {"class_name": "Ones", "config": {}}, "epsilon": 0.001, "moving_mean_initializer": {"class_name": "Zeros", "config": {}}, "scale": false, "momentum": 0.99, "gamma_initializer": {"class_name": "Ones", "config": {}}, "axis": 3, "center": true, "trainable": true, "beta_constraint": null, "name": "batch_normalization_48", "beta_initializer": {"class_name": "Zeros", "config": {}}}, "class_name": "BatchNormalization"}, {"inbound_nodes": [[["batch_normalization_43", 0, 0, {}]]], "name": "activation_43", "config": {"activation": "relu", "name": "activation_43", "trainable": true}, "class_name": "Activation"}, {"inbound_nodes": [[["batch_normalization_48", 0, 0, {}]]], "name": "activation_48", "config": {"activation": "relu", "name": "activation_48", "trainable": true}, "class_name": "Activation"}, {"inbound_nodes": [[["mixed4", 0, 0, {}]]], "name": "average_pooling2d_5", "config": {"strides": [1, 1], "data_format": "channels_last", "name": "average_pooling2d_5", "pool_size": [3, 3], "padding": "same", "trainable": true}, "class_name": "AveragePooling2D"}, {"inbound_nodes": [[["mixed4", 0, 0, {}]]], "name": "conv2d_41", "config": {"bias_constraint": null, "activity_regularizer": null, "dilation_rate": [1, 1], "kernel_regularizer": null, "activation": "linear", "bias_regularizer": null, "use_bias": false, "strides": [1, 1], "data_format": "channels_last", "kernel_size": [1, 1], "kernel_constraint": null, "bias_initializer": {"class_name": "Zeros", "config": {}}, "trainable": true, "kernel_initializer": {"class_name": "VarianceScaling", "config": {"scale": 1.0, "distribution": "uniform", "mode": "fan_avg", "seed": null}}, "padding": "same", "filters": 192, "name": "conv2d_41"}, "class_name": "Conv2D"}, {"inbound_nodes": [[["activation_43", 0, 0, {}]]], "name": "conv2d_44", "config": {"bias_constraint": null, "activity_regularizer": null, "dilation_rate": [1, 1], "kernel_regularizer": null, "activation": "linear", "bias_regularizer": null, "use_bias": false, "strides": [1, 1], "data_format": "channels_last", "kernel_size": [7, 1], "kernel_constraint": null, "bias_initializer": {"class_name": "Zeros", "config": {}}, "trainable": true, "kernel_initializer": {"class_name": "VarianceScaling", "config": {"scale": 1.0, "distribution": "uniform", "mode": "fan_avg", "seed": null}}, "padding": "same", "filters": 192, "name": "conv2d_44"}, "class_name": "Conv2D"}, {"inbound_nodes": [[["activation_48", 0, 0, {}]]], "name": "conv2d_49", "config": {"bias_constraint": null, "activity_regularizer": null, "dilation_rate": [1, 1], "kernel_regularizer": null, "activation": "linear", "bias_regularizer": null, "use_bias": false, "strides": [1, 1], "data_format": "channels_last", "kernel_size": [1, 7], "kernel_constraint": null, "bias_initializer": {"class_name": "Zeros", "config": {}}, "trainable": true, "kernel_initializer": {"class_name": "VarianceScaling", "config": {"scale": 1.0, "distribution": "uniform", "mode": "fan_avg", "seed": null}}, "padding": "same", "filters": 192, "name": "conv2d_49"}, "class_name": "Conv2D"}, {"inbound_nodes": [[["average_pooling2d_5", 0, 0, {}]]], "name": "conv2d_50", "config": {"bias_constraint": null, "activity_regularizer": null, "dilation_rate": [1, 1], "kernel_regularizer": null, "activation": "linear", "bias_regularizer": null, "use_bias": false, "strides": [1, 1], "data_format": "channels_last", "kernel_size": [1, 1], "kernel_constraint": null, "bias_initializer": {"class_name": "Zeros", "config": {}}, "trainable": true, "kernel_initializer": {"class_name": "VarianceScaling", "config": {"scale": 1.0, "distribution": "uniform", "mode": "fan_avg", "seed": null}}, "padding": "same", "filters": 192, "name": "conv2d_50"}, "class_name": "Conv2D"}, {"inbound_nodes": [[["conv2d_41", 0, 0, {}]]], "name": "batch_normalization_41", "config": {"beta_regularizer": null, "gamma_constraint": null, "gamma_regularizer": null, "moving_variance_initializer": {"class_name": "Ones", "config": {}}, "epsilon": 0.001, "moving_mean_initializer": {"class_name": "Zeros", "config": {}}, "scale": false, "momentum": 0.99, "gamma_initializer": {"class_name": "Ones", "config": {}}, "axis": 3, "center": true, "trainable": true, "beta_constraint": null, "name": "batch_normalization_41", "beta_initializer": {"class_name": "Zeros", "config": {}}}, "class_name": "BatchNormalization"}, {"inbound_nodes": [[["conv2d_44", 0, 0, {}]]], "name": "batch_normalization_44", "config": {"beta_regularizer": null, "gamma_constraint": null, "gamma_regularizer": null, "moving_variance_initializer": {"class_name": "Ones", "config": {}}, "epsilon": 0.001, "moving_mean_initializer": {"class_name": "Zeros", "config": {}}, "scale": false, "momentum": 0.99, "gamma_initializer": {"class_name": "Ones", "config": {}}, "axis": 3, "center": true, "trainable": true, "beta_constraint": null, "name": "batch_normalization_44", "beta_initializer": {"class_name": "Zeros", "config": {}}}, "class_name": "BatchNormalization"}, {"inbound_nodes": [[["conv2d_49", 0, 0, {}]]], "name": "batch_normalization_49", "config": {"beta_regularizer": null, "gamma_constraint": null, "gamma_regularizer": null, "moving_variance_initializer": {"class_name": "Ones", "config": {}}, "epsilon": 0.001, "moving_mean_initializer": {"class_name": "Zeros", "config": {}}, "scale": false, "momentum": 0.99, "gamma_initializer": {"class_name": "Ones", "config": {}}, "axis": 3, "center": true, "trainable": true, "beta_constraint": null, "name": "batch_normalization_49", "beta_initializer": {"class_name": "Zeros", "config": {}}}, "class_name": "BatchNormalization"}, {"inbound_nodes": [[["conv2d_50", 0, 0, {}]]], "name": "batch_normalization_50", "config": {"beta_regularizer": null, "gamma_constraint": null, "gamma_regularizer": null, "moving_variance_initializer": {"class_name": "Ones", "config": {}}, "epsilon": 0.001, "moving_mean_initializer": {"class_name": "Zeros", "config": {}}, "scale": false, "momentum": 0.99, "gamma_initializer": {"class_name": "Ones", "config": {}}, "axis": 3, "center": true, "trainable": true, "beta_constraint": null, "name": "batch_normalization_50", "beta_initializer": {"class_name": "Zeros", "config": {}}}, "class_name": "BatchNormalization"}, {"inbound_nodes": [[["batch_normalization_41", 0, 0, {}]]], "name": "activation_41", "config": {"activation": "relu", "name": "activation_41", "trainable": true}, "class_name": "Activation"}, {"inbound_nodes": [[["batch_normalization_44", 0, 0, {}]]], "name": "activation_44", "config": {"activation": "relu", "name": "activation_44", "trainable": true}, "class_name": "Activation"}, {"inbound_nodes": [[["batch_normalization_49", 0, 0, {}]]], "name": "activation_49", "config": {"activation": "relu", "name": "activation_49", "trainable": true}, "class_name": "Activation"}, {"inbound_nodes": [[["batch_normalization_50", 0, 0, {}]]], "name": "activation_50", "config": {"activation": "relu", "name": "activation_50", "trainable": true}, "class_name": "Activation"}, {"inbound_nodes": [[["activation_41", 0, 0, {}], ["activation_44", 0, 0, {}], ["activation_49", 0, 0, {}], ["activation_50", 0, 0, {}]]], "name": "mixed5", "config": {"name": "mixed5", "axis": 3, "trainable": true}, "class_name": "Concatenate"}, {"inbound_nodes": [[["mixed5", 0, 0, {}]]], "name": "conv2d_55", "config": {"bias_constraint": null, "activity_regularizer": null, "dilation_rate": [1, 1], "kernel_regularizer": null, "activation": "linear", "bias_regularizer": null, "use_bias": false, "strides": [1, 1], "data_format": "channels_last", "kernel_size": [1, 1], "kernel_constraint": null, "bias_initializer": {"class_name": "Zeros", "config": {}}, "trainable": true, "kernel_initializer": {"class_name": "VarianceScaling", "config": {"scale": 1.0, "distribution": "uniform", "mode": "fan_avg", "seed": null}}, "padding": "same", "filters": 160, "name": "conv2d_55"}, "class_name": "Conv2D"}, {"inbound_nodes": [[["conv2d_55", 0, 0, {}]]], "name": "batch_normalization_55", "config": {"beta_regularizer": null, "gamma_constraint": null, "gamma_regularizer": null, "moving_variance_initializer": {"class_name": "Ones", "config": {}}, "epsilon": 0.001, "moving_mean_initializer": {"class_name": "Zeros", "config": {}}, "scale": false, "momentum": 0.99, "gamma_initializer": {"class_name": "Ones", "config": {}}, "axis": 3, "center": true, "trainable": true, "beta_constraint": null, "name": "batch_normalization_55", "beta_initializer": {"class_name": "Zeros", "config": {}}}, "class_name": "BatchNormalization"}, {"inbound_nodes": [[["batch_normalization_55", 0, 0, {}]]], "name": "activation_55", "config": {"activation": "relu", "name": "activation_55", "trainable": true}, "class_name": "Activation"}, {"inbound_nodes": [[["activation_55", 0, 0, {}]]], "name": "conv2d_56", "config": {"bias_constraint": null, "activity_regularizer": null, "dilation_rate": [1, 1], "kernel_regularizer": null, "activation": "linear", "bias_regularizer": null, "use_bias": false, "strides": [1, 1], "data_format": "channels_last", "kernel_size": [7, 1], "kernel_constraint": null, "bias_initializer": {"class_name": "Zeros", "config": {}}, "trainable": true, "kernel_initializer": {"class_name": "VarianceScaling", "config": {"scale": 1.0, "distribution": "uniform", "mode": "fan_avg", "seed": null}}, "padding": "same", "filters": 160, "name": "conv2d_56"}, "class_name": "Conv2D"}, {"inbound_nodes": [[["conv2d_56", 0, 0, {}]]], "name": "batch_normalization_56", "config": {"beta_regularizer": null, "gamma_constraint": null, "gamma_regularizer": null, "moving_variance_initializer": {"class_name": "Ones", "config": {}}, "epsilon": 0.001, "moving_mean_initializer": {"class_name": "Zeros", "config": {}}, "scale": false, "momentum": 0.99, "gamma_initializer": {"class_name": "Ones", "config": {}}, "axis": 3, "center": true, "trainable": true, "beta_constraint": null, "name": "batch_normalization_56", "beta_initializer": {"class_name": "Zeros", "config": {}}}, "class_name": "BatchNormalization"}, {"inbound_nodes": [[["batch_normalization_56", 0, 0, {}]]], "name": "activation_56", "config": {"activation": "relu", "name": "activation_56", "trainable": true}, "class_name": "Activation"}, {"inbound_nodes": [[["mixed5", 0, 0, {}]]], "name": "conv2d_52", "config": {"bias_constraint": null, "activity_regularizer": null, "dilation_rate": [1, 1], "kernel_regularizer": null, "activation": "linear", "bias_regularizer": null, "use_bias": false, "strides": [1, 1], "data_format": "channels_last", "kernel_size": [1, 1], "kernel_constraint": null, "bias_initializer": {"class_name": "Zeros", "config": {}}, "trainable": true, "kernel_initializer": {"class_name": "VarianceScaling", "config": {"scale": 1.0, "distribution": "uniform", "mode": "fan_avg", "seed": null}}, "padding": "same", "filters": 160, "name": "conv2d_52"}, "class_name": "Conv2D"}, {"inbound_nodes": [[["activation_56", 0, 0, {}]]], "name": "conv2d_57", "config": {"bias_constraint": null, "activity_regularizer": null, "dilation_rate": [1, 1], "kernel_regularizer": null, "activation": "linear", "bias_regularizer": null, "use_bias": false, "strides": [1, 1], "data_format": "channels_last", "kernel_size": [1, 7], "kernel_constraint": null, "bias_initializer": {"class_name": "Zeros", "config": {}}, "trainable": true, "kernel_initializer": {"class_name": "VarianceScaling", "config": {"scale": 1.0, "distribution": "uniform", "mode": "fan_avg", "seed": null}}, "padding": "same", "filters": 160, "name": "conv2d_57"}, "class_name": "Conv2D"}, {"inbound_nodes": [[["conv2d_52", 0, 0, {}]]], "name": "batch_normalization_52", "config": {"beta_regularizer": null, "gamma_constraint": null, "gamma_regularizer": null, "moving_variance_initializer": {"class_name": "Ones", "config": {}}, "epsilon": 0.001, "moving_mean_initializer": {"class_name": "Zeros", "config": {}}, "scale": false, "momentum": 0.99, "gamma_initializer": {"class_name": "Ones", "config": {}}, "axis": 3, "center": true, "trainable": true, "beta_constraint": null, "name": "batch_normalization_52", "beta_initializer": {"class_name": "Zeros", "config": {}}}, "class_name": "BatchNormalization"}, {"inbound_nodes": [[["conv2d_57", 0, 0, {}]]], "name": "batch_normalization_57", "config": {"beta_regularizer": null, "gamma_constraint": null, "gamma_regularizer": null, "moving_variance_initializer": {"class_name": "Ones", "config": {}}, "epsilon": 0.001, "moving_mean_initializer": {"class_name": "Zeros", "config": {}}, "scale": false, "momentum": 0.99, "gamma_initializer": {"class_name": "Ones", "config": {}}, "axis": 3, "center": true, "trainable": true, "beta_constraint": null, "name": "batch_normalization_57", "beta_initializer": {"class_name": "Zeros", "config": {}}}, "class_name": "BatchNormalization"}, {"inbound_nodes": [[["batch_normalization_52", 0, 0, {}]]], "name": "activation_52", "config": {"activation": "relu", "name": "activation_52", "trainable": true}, "class_name": "Activation"}, {"inbound_nodes": [[["batch_normalization_57", 0, 0, {}]]], "name": "activation_57", "config": {"activation": "relu", "name": "activation_57", "trainable": true}, "class_name": "Activation"}, {"inbound_nodes": [[["activation_52", 0, 0, {}]]], "name": "conv2d_53", "config": {"bias_constraint": null, "activity_regularizer": null, "dilation_rate": [1, 1], "kernel_regularizer": null, "activation": "linear", "bias_regularizer": null, "use_bias": false, "strides": [1, 1], "data_format": "channels_last", "kernel_size": [1, 7], "kernel_constraint": null, "bias_initializer": {"class_name": "Zeros", "config": {}}, "trainable": true, "kernel_initializer": {"class_name": "VarianceScaling", "config": {"scale": 1.0, "distribution": "uniform", "mode": "fan_avg", "seed": null}}, "padding": "same", "filters": 160, "name": "conv2d_53"}, "class_name": "Conv2D"}, {"inbound_nodes": [[["activation_57", 0, 0, {}]]], "name": "conv2d_58", "config": {"bias_constraint": null, "activity_regularizer": null, "dilation_rate": [1, 1], "kernel_regularizer": null, "activation": "linear", "bias_regularizer": null, "use_bias": false, "strides": [1, 1], "data_format": "channels_last", "kernel_size": [7, 1], "kernel_constraint": null, "bias_initializer": {"class_name": "Zeros", "config": {}}, "trainable": true, "kernel_initializer": {"class_name": "VarianceScaling", "config": {"scale": 1.0, "distribution": "uniform", "mode": "fan_avg", "seed": null}}, "padding": "same", "filters": 160, "name": "conv2d_58"}, "class_name": "Conv2D"}, {"inbound_nodes": [[["conv2d_53", 0, 0, {}]]], "name": "batch_normalization_53", "config": {"beta_regularizer": null, "gamma_constraint": null, "gamma_regularizer": null, "moving_variance_initializer": {"class_name": "Ones", "config": {}}, "epsilon": 0.001, "moving_mean_initializer": {"class_name": "Zeros", "config": {}}, "scale": false, "momentum": 0.99, "gamma_initializer": {"class_name": "Ones", "config": {}}, "axis": 3, "center": true, "trainable": true, "beta_constraint": null, "name": "batch_normalization_53", "beta_initializer": {"class_name": "Zeros", "config": {}}}, "class_name": "BatchNormalization"}, {"inbound_nodes": [[["conv2d_58", 0, 0, {}]]], "name": "batch_normalization_58", "config": {"beta_regularizer": null, "gamma_constraint": null, "gamma_regularizer": null, "moving_variance_initializer": {"class_name": "Ones", "config": {}}, "epsilon": 0.001, "moving_mean_initializer": {"class_name": "Zeros", "config": {}}, "scale": false, "momentum": 0.99, "gamma_initializer": {"class_name": "Ones", "config": {}}, "axis": 3, "center": true, "trainable": true, "beta_constraint": null, "name": "batch_normalization_58", "beta_initializer": {"class_name": "Zeros", "config": {}}}, "class_name": "BatchNormalization"}, {"inbound_nodes": [[["batch_normalization_53", 0, 0, {}]]], "name": "activation_53", "config": {"activation": "relu", "name": "activation_53", "trainable": true}, "class_name": "Activation"}, {"inbound_nodes": [[["batch_normalization_58", 0, 0, {}]]], "name": "activation_58", "config": {"activation": "relu", "name": "activation_58", "trainable": true}, "class_name": "Activation"}, {"inbound_nodes": [[["mixed5", 0, 0, {}]]], "name": "average_pooling2d_6", "config": {"strides": [1, 1], "data_format": "channels_last", "name": "average_pooling2d_6", "pool_size": [3, 3], "padding": "same", "trainable": true}, "class_name": "AveragePooling2D"}, {"inbound_nodes": [[["mixed5", 0, 0, {}]]], "name": "conv2d_51", "config": {"bias_constraint": null, "activity_regularizer": null, "dilation_rate": [1, 1], "kernel_regularizer": null, "activation": "linear", "bias_regularizer": null, "use_bias": false, "strides": [1, 1], "data_format": "channels_last", "kernel_size": [1, 1], "kernel_constraint": null, "bias_initializer": {"class_name": "Zeros", "config": {}}, "trainable": true, "kernel_initializer": {"class_name": "VarianceScaling", "config": {"scale": 1.0, "distribution": "uniform", "mode": "fan_avg", "seed": null}}, "padding": "same", "filters": 192, "name": "conv2d_51"}, "class_name": "Conv2D"}, {"inbound_nodes": [[["activation_53", 0, 0, {}]]], "name": "conv2d_54", "config": {"bias_constraint": null, "activity_regularizer": null, "dilation_rate": [1, 1], "kernel_regularizer": null, "activation": "linear", "bias_regularizer": null, "use_bias": false, "strides": [1, 1], "data_format": "channels_last", "kernel_size": [7, 1], "kernel_constraint": null, "bias_initializer": {"class_name": "Zeros", "config": {}}, "trainable": true, "kernel_initializer": {"class_name": "VarianceScaling", "config": {"scale": 1.0, "distribution": "uniform", "mode": "fan_avg", "seed": null}}, "padding": "same", "filters": 192, "name": "conv2d_54"}, "class_name": "Conv2D"}, {"inbound_nodes": [[["activation_58", 0, 0, {}]]], "name": "conv2d_59", "config": {"bias_constraint": null, "activity_regularizer": null, "dilation_rate": [1, 1], "kernel_regularizer": null, "activation": "linear", "bias_regularizer": null, "use_bias": false, "strides": [1, 1], "data_format": "channels_last", "kernel_size": [1, 7], "kernel_constraint": null, "bias_initializer": {"class_name": "Zeros", "config": {}}, "trainable": true, "kernel_initializer": {"class_name": "VarianceScaling", "config": {"scale": 1.0, "distribution": "uniform", "mode": "fan_avg", "seed": null}}, "padding": "same", "filters": 192, "name": "conv2d_59"}, "class_name": "Conv2D"}, {"inbound_nodes": [[["average_pooling2d_6", 0, 0, {}]]], "name": "conv2d_60", "config": {"bias_constraint": null, "activity_regularizer": null, "dilation_rate": [1, 1], "kernel_regularizer": null, "activation": "linear", "bias_regularizer": null, "use_bias": false, "strides": [1, 1], "data_format": "channels_last", "kernel_size": [1, 1], "kernel_constraint": null, "bias_initializer": {"class_name": "Zeros", "config": {}}, "trainable": true, "kernel_initializer": {"class_name": "VarianceScaling", "config": {"scale": 1.0, "distribution": "uniform", "mode": "fan_avg", "seed": null}}, "padding": "same", "filters": 192, "name": "conv2d_60"}, "class_name": "Conv2D"}, {"inbound_nodes": [[["conv2d_51", 0, 0, {}]]], "name": "batch_normalization_51", "config": {"beta_regularizer": null, "gamma_constraint": null, "gamma_regularizer": null, "moving_variance_initializer": {"class_name": "Ones", "config": {}}, "epsilon": 0.001, "moving_mean_initializer": {"class_name": "Zeros", "config": {}}, "scale": false, "momentum": 0.99, "gamma_initializer": {"class_name": "Ones", "config": {}}, "axis": 3, "center": true, "trainable": true, "beta_constraint": null, "name": "batch_normalization_51", "beta_initializer": {"class_name": "Zeros", "config": {}}}, "class_name": "BatchNormalization"}, {"inbound_nodes": [[["conv2d_54", 0, 0, {}]]], "name": "batch_normalization_54", "config": {"beta_regularizer": null, "gamma_constraint": null, "gamma_regularizer": null, "moving_variance_initializer": {"class_name": "Ones", "config": {}}, "epsilon": 0.001, "moving_mean_initializer": {"class_name": "Zeros", "config": {}}, "scale": false, "momentum": 0.99, "gamma_initializer": {"class_name": "Ones", "config": {}}, "axis": 3, "center": true, "trainable": true, "beta_constraint": null, "name": "batch_normalization_54", "beta_initializer": {"class_name": "Zeros", "config": {}}}, "class_name": "BatchNormalization"}, {"inbound_nodes": [[["conv2d_59", 0, 0, {}]]], "name": "batch_normalization_59", "config": {"beta_regularizer": null, "gamma_constraint": null, "gamma_regularizer": null, "moving_variance_initializer": {"class_name": "Ones", "config": {}}, "epsilon": 0.001, "moving_mean_initializer": {"class_name": "Zeros", "config": {}}, "scale": false, "momentum": 0.99, "gamma_initializer": {"class_name": "Ones", "config": {}}, "axis": 3, "center": true, "trainable": true, "beta_constraint": null, "name": "batch_normalization_59", "beta_initializer": {"class_name": "Zeros", "config": {}}}, "class_name": "BatchNormalization"}, {"inbound_nodes": [[["conv2d_60", 0, 0, {}]]], "name": "batch_normalization_60", "config": {"beta_regularizer": null, "gamma_constraint": null, "gamma_regularizer": null, "moving_variance_initializer": {"class_name": "Ones", "config": {}}, "epsilon": 0.001, "moving_mean_initializer": {"class_name": "Zeros", "config": {}}, "scale": false, "momentum": 0.99, "gamma_initializer": {"class_name": "Ones", "config": {}}, "axis": 3, "center": true, "trainable": true, "beta_constraint": null, "name": "batch_normalization_60", "beta_initializer": {"class_name": "Zeros", "config": {}}}, "class_name": "BatchNormalization"}, {"inbound_nodes": [[["batch_normalization_51", 0, 0, {}]]], "name": "activation_51", "config": {"activation": "relu", "name": "activation_51", "trainable": true}, "class_name": "Activation"}, {"inbound_nodes": [[["batch_normalization_54", 0, 0, {}]]], "name": "activation_54", "config": {"activation": "relu", "name": "activation_54", "trainable": true}, "class_name": "Activation"}, {"inbound_nodes": [[["batch_normalization_59", 0, 0, {}]]], "name": "activation_59", "config": {"activation": "relu", "name": "activation_59", "trainable": true}, "class_name": "Activation"}, {"inbound_nodes": [[["batch_normalization_60", 0, 0, {}]]], "name": "activation_60", "config": {"activation": "relu", "name": "activation_60", "trainable": true}, "class_name": "Activation"}, {"inbound_nodes": [[["activation_51", 0, 0, {}], ["activation_54", 0, 0, {}], ["activation_59", 0, 0, {}], ["activation_60", 0, 0, {}]]], "name": "mixed6", "config": {"name": "mixed6", "axis": 3, "trainable": true}, "class_name": "Concatenate"}, {"inbound_nodes": [[["mixed6", 0, 0, {}]]], "name": "conv2d_65", "config": {"bias_constraint": null, "activity_regularizer": null, "dilation_rate": [1, 1], "kernel_regularizer": null, "activation": "linear", "bias_regularizer": null, "use_bias": false, "strides": [1, 1], "data_format": "channels_last", "kernel_size": [1, 1], "kernel_constraint": null, "bias_initializer": {"class_name": "Zeros", "config": {}}, "trainable": true, "kernel_initializer": {"class_name": "VarianceScaling", "config": {"scale": 1.0, "distribution": "uniform", "mode": "fan_avg", "seed": null}}, "padding": "same", "filters": 192, "name": "conv2d_65"}, "class_name": "Conv2D"}, {"inbound_nodes": [[["conv2d_65", 0, 0, {}]]], "name": "batch_normalization_65", "config": {"beta_regularizer": null, "gamma_constraint": null, "gamma_regularizer": null, "moving_variance_initializer": {"class_name": "Ones", "config": {}}, "epsilon": 0.001, "moving_mean_initializer": {"class_name": "Zeros", "config": {}}, "scale": false, "momentum": 0.99, "gamma_initializer": {"class_name": "Ones", "config": {}}, "axis": 3, "center": true, "trainable": true, "beta_constraint": null, "name": "batch_normalization_65", "beta_initializer": {"class_name": "Zeros", "config": {}}}, "class_name": "BatchNormalization"}, {"inbound_nodes": [[["batch_normalization_65", 0, 0, {}]]], "name": "activation_65", "config": {"activation": "relu", "name": "activation_65", "trainable": true}, "class_name": "Activation"}, {"inbound_nodes": [[["activation_65", 0, 0, {}]]], "name": "conv2d_66", "config": {"bias_constraint": null, "activity_regularizer": null, "dilation_rate": [1, 1], "kernel_regularizer": null, "activation": "linear", "bias_regularizer": null, "use_bias": false, "strides": [1, 1], "data_format": "channels_last", "kernel_size": [7, 1], "kernel_constraint": null, "bias_initializer": {"class_name": "Zeros", "config": {}}, "trainable": true, "kernel_initializer": {"class_name": "VarianceScaling", "config": {"scale": 1.0, "distribution": "uniform", "mode": "fan_avg", "seed": null}}, "padding": "same", "filters": 192, "name": "conv2d_66"}, "class_name": "Conv2D"}, {"inbound_nodes": [[["conv2d_66", 0, 0, {}]]], "name": "batch_normalization_66", "config": {"beta_regularizer": null, "gamma_constraint": null, "gamma_regularizer": null, "moving_variance_initializer": {"class_name": "Ones", "config": {}}, "epsilon": 0.001, "moving_mean_initializer": {"class_name": "Zeros", "config": {}}, "scale": false, "momentum": 0.99, "gamma_initializer": {"class_name": "Ones", "config": {}}, "axis": 3, "center": true, "trainable": true, "beta_constraint": null, "name": "batch_normalization_66", "beta_initializer": {"class_name": "Zeros", "config": {}}}, "class_name": "BatchNormalization"}, {"inbound_nodes": [[["batch_normalization_66", 0, 0, {}]]], "name": "activation_66", "config": {"activation": "relu", "name": "activation_66", "trainable": true}, "class_name": "Activation"}, {"inbound_nodes": [[["mixed6", 0, 0, {}]]], "name": "conv2d_62", "config": {"bias_constraint": null, "activity_regularizer": null, "dilation_rate": [1, 1], "kernel_regularizer": null, "activation": "linear", "bias_regularizer": null, "use_bias": false, "strides": [1, 1], "data_format": "channels_last", "kernel_size": [1, 1], "kernel_constraint": null, "bias_initializer": {"class_name": "Zeros", "config": {}}, "trainable": true, "kernel_initializer": {"class_name": "VarianceScaling", "config": {"scale": 1.0, "distribution": "uniform", "mode": "fan_avg", "seed": null}}, "padding": "same", "filters": 192, "name": "conv2d_62"}, "class_name": "Conv2D"}, {"inbound_nodes": [[["activation_66", 0, 0, {}]]], "name": "conv2d_67", "config": {"bias_constraint": null, "activity_regularizer": null, "dilation_rate": [1, 1], "kernel_regularizer": null, "activation": "linear", "bias_regularizer": null, "use_bias": false, "strides": [1, 1], "data_format": "channels_last", "kernel_size": [1, 7], "kernel_constraint": null, "bias_initializer": {"class_name": "Zeros", "config": {}}, "trainable": true, "kernel_initializer": {"class_name": "VarianceScaling", "config": {"scale": 1.0, "distribution": "uniform", "mode": "fan_avg", "seed": null}}, "padding": "same", "filters": 192, "name": "conv2d_67"}, "class_name": "Conv2D"}, {"inbound_nodes": [[["conv2d_62", 0, 0, {}]]], "name": "batch_normalization_62", "config": {"beta_regularizer": null, "gamma_constraint": null, "gamma_regularizer": null, "moving_variance_initializer": {"class_name": "Ones", "config": {}}, "epsilon": 0.001, "moving_mean_initializer": {"class_name": "Zeros", "config": {}}, "scale": false, "momentum": 0.99, "gamma_initializer": {"class_name": "Ones", "config": {}}, "axis": 3, "center": true, "trainable": true, "beta_constraint": null, "name": "batch_normalization_62", "beta_initializer": {"class_name": "Zeros", "config": {}}}, "class_name": "BatchNormalization"}, {"inbound_nodes": [[["conv2d_67", 0, 0, {}]]], "name": "batch_normalization_67", "config": {"beta_regularizer": null, "gamma_constraint": null, "gamma_regularizer": null, "moving_variance_initializer": {"class_name": "Ones", "config": {}}, "epsilon": 0.001, "moving_mean_initializer": {"class_name": "Zeros", "config": {}}, "scale": false, "momentum": 0.99, "gamma_initializer": {"class_name": "Ones", "config": {}}, "axis": 3, "center": true, "trainable": true, "beta_constraint": null, "name": "batch_normalization_67", "beta_initializer": {"class_name": "Zeros", "config": {}}}, "class_name": "BatchNormalization"}, {"inbound_nodes": [[["batch_normalization_62", 0, 0, {}]]], "name": "activation_62", "config": {"activation": "relu", "name": "activation_62", "trainable": true}, "class_name": "Activation"}, {"inbound_nodes": [[["batch_normalization_67", 0, 0, {}]]], "name": "activation_67", "config": {"activation": "relu", "name": "activation_67", "trainable": true}, "class_name": "Activation"}, {"inbound_nodes": [[["activation_62", 0, 0, {}]]], "name": "conv2d_63", "config": {"bias_constraint": null, "activity_regularizer": null, "dilation_rate": [1, 1], "kernel_regularizer": null, "activation": "linear", "bias_regularizer": null, "use_bias": false, "strides": [1, 1], "data_format": "channels_last", "kernel_size": [1, 7], "kernel_constraint": null, "bias_initializer": {"class_name": "Zeros", "config": {}}, "trainable": true, "kernel_initializer": {"class_name": "VarianceScaling", "config": {"scale": 1.0, "distribution": "uniform", "mode": "fan_avg", "seed": null}}, "padding": "same", "filters": 192, "name": "conv2d_63"}, "class_name": "Conv2D"}, {"inbound_nodes": [[["activation_67", 0, 0, {}]]], "name": "conv2d_68", "config": {"bias_constraint": null, "activity_regularizer": null, "dilation_rate": [1, 1], "kernel_regularizer": null, "activation": "linear", "bias_regularizer": null, "use_bias": false, "strides": [1, 1], "data_format": "channels_last", "kernel_size": [7, 1], "kernel_constraint": null, "bias_initializer": {"class_name": "Zeros", "config": {}}, "trainable": true, "kernel_initializer": {"class_name": "VarianceScaling", "config": {"scale": 1.0, "distribution": "uniform", "mode": "fan_avg", "seed": null}}, "padding": "same", "filters": 192, "name": "conv2d_68"}, "class_name": "Conv2D"}, {"inbound_nodes": [[["conv2d_63", 0, 0, {}]]], "name": "batch_normalization_63", "config": {"beta_regularizer": null, "gamma_constraint": null, "gamma_regularizer": null, "moving_variance_initializer": {"class_name": "Ones", "config": {}}, "epsilon": 0.001, "moving_mean_initializer": {"class_name": "Zeros", "config": {}}, "scale": false, "momentum": 0.99, "gamma_initializer": {"class_name": "Ones", "config": {}}, "axis": 3, "center": true, "trainable": true, "beta_constraint": null, "name": "batch_normalization_63", "beta_initializer": {"class_name": "Zeros", "config": {}}}, "class_name": "BatchNormalization"}, {"inbound_nodes": [[["conv2d_68", 0, 0, {}]]], "name": "batch_normalization_68", "config": {"beta_regularizer": null, "gamma_constraint": null, "gamma_regularizer": null, "moving_variance_initializer": {"class_name": "Ones", "config": {}}, "epsilon": 0.001, "moving_mean_initializer": {"class_name": "Zeros", "config": {}}, "scale": false, "momentum": 0.99, "gamma_initializer": {"class_name": "Ones", "config": {}}, "axis": 3, "center": true, "trainable": true, "beta_constraint": null, "name": "batch_normalization_68", "beta_initializer": {"class_name": "Zeros", "config": {}}}, "class_name": "BatchNormalization"}, {"inbound_nodes": [[["batch_normalization_63", 0, 0, {}]]], "name": "activation_63", "config": {"activation": "relu", "name": "activation_63", "trainable": true}, "class_name": "Activation"}, {"inbound_nodes": [[["batch_normalization_68", 0, 0, {}]]], "name": "activation_68", "config": {"activation": "relu", "name": "activation_68", "trainable": true}, "class_name": "Activation"}, {"inbound_nodes": [[["mixed6", 0, 0, {}]]], "name": "average_pooling2d_7", "config": {"strides": [1, 1], "data_format": "channels_last", "name": "average_pooling2d_7", "pool_size": [3, 3], "padding": "same", "trainable": true}, "class_name": "AveragePooling2D"}, {"inbound_nodes": [[["mixed6", 0, 0, {}]]], "name": "conv2d_61", "config": {"bias_constraint": null, "activity_regularizer": null, "dilation_rate": [1, 1], "kernel_regularizer": null, "activation": "linear", "bias_regularizer": null, "use_bias": false, "strides": [1, 1], "data_format": "channels_last", "kernel_size": [1, 1], "kernel_constraint": null, "bias_initializer": {"class_name": "Zeros", "config": {}}, "trainable": true, "kernel_initializer": {"class_name": "VarianceScaling", "config": {"scale": 1.0, "distribution": "uniform", "mode": "fan_avg", "seed": null}}, "padding": "same", "filters": 192, "name": "conv2d_61"}, "class_name": "Conv2D"}, {"inbound_nodes": [[["activation_63", 0, 0, {}]]], "name": "conv2d_64", "config": {"bias_constraint": null, "activity_regularizer": null, "dilation_rate": [1, 1], "kernel_regularizer": null, "activation": "linear", "bias_regularizer": null, "use_bias": false, "strides": [1, 1], "data_format": "channels_last", "kernel_size": [7, 1], "kernel_constraint": null, "bias_initializer": {"class_name": "Zeros", "config": {}}, "trainable": true, "kernel_initializer": {"class_name": "VarianceScaling", "config": {"scale": 1.0, "distribution": "uniform", "mode": "fan_avg", "seed": null}}, "padding": "same", "filters": 192, "name": "conv2d_64"}, "class_name": "Conv2D"}, {"inbound_nodes": [[["activation_68", 0, 0, {}]]], "name": "conv2d_69", "config": {"bias_constraint": null, "activity_regularizer": null, "dilation_rate": [1, 1], "kernel_regularizer": null, "activation": "linear", "bias_regularizer": null, "use_bias": false, "strides": [1, 1], "data_format": "channels_last", "kernel_size": [1, 7], "kernel_constraint": null, "bias_initializer": {"class_name": "Zeros", "config": {}}, "trainable": true, "kernel_initializer": {"class_name": "VarianceScaling", "config": {"scale": 1.0, "distribution": "uniform", "mode": "fan_avg", "seed": null}}, "padding": "same", "filters": 192, "name": "conv2d_69"}, "class_name": "Conv2D"}, {"inbound_nodes": [[["average_pooling2d_7", 0, 0, {}]]], "name": "conv2d_70", "config": {"bias_constraint": null, "activity_regularizer": null, "dilation_rate": [1, 1], "kernel_regularizer": null, "activation": "linear", "bias_regularizer": null, "use_bias": false, "strides": [1, 1], "data_format": "channels_last", "kernel_size": [1, 1], "kernel_constraint": null, "bias_initializer": {"class_name": "Zeros", "config": {}}, "trainable": true, "kernel_initializer": {"class_name": "VarianceScaling", "config": {"scale": 1.0, "distribution": "uniform", "mode": "fan_avg", "seed": null}}, "padding": "same", "filters": 192, "name": "conv2d_70"}, "class_name": "Conv2D"}, {"inbound_nodes": [[["conv2d_61", 0, 0, {}]]], "name": "batch_normalization_61", "config": {"beta_regularizer": null, "gamma_constraint": null, "gamma_regularizer": null, "moving_variance_initializer": {"class_name": "Ones", "config": {}}, "epsilon": 0.001, "moving_mean_initializer": {"class_name": "Zeros", "config": {}}, "scale": false, "momentum": 0.99, "gamma_initializer": {"class_name": "Ones", "config": {}}, "axis": 3, "center": true, "trainable": true, "beta_constraint": null, "name": "batch_normalization_61", "beta_initializer": {"class_name": "Zeros", "config": {}}}, "class_name": "BatchNormalization"}, {"inbound_nodes": [[["conv2d_64", 0, 0, {}]]], "name": "batch_normalization_64", "config": {"beta_regularizer": null, "gamma_constraint": null, "gamma_regularizer": null, "moving_variance_initializer": {"class_name": "Ones", "config": {}}, "epsilon": 0.001, "moving_mean_initializer": {"class_name": "Zeros", "config": {}}, "scale": false, "momentum": 0.99, "gamma_initializer": {"class_name": "Ones", "config": {}}, "axis": 3, "center": true, "trainable": true, "beta_constraint": null, "name": "batch_normalization_64", "beta_initializer": {"class_name": "Zeros", "config": {}}}, "class_name": "BatchNormalization"}, {"inbound_nodes": [[["conv2d_69", 0, 0, {}]]], "name": "batch_normalization_69", "config": {"beta_regularizer": null, "gamma_constraint": null, "gamma_regularizer": null, "moving_variance_initializer": {"class_name": "Ones", "config": {}}, "epsilon": 0.001, "moving_mean_initializer": {"class_name": "Zeros", "config": {}}, "scale": false, "momentum": 0.99, "gamma_initializer": {"class_name": "Ones", "config": {}}, "axis": 3, "center": true, "trainable": true, "beta_constraint": null, "name": "batch_normalization_69", "beta_initializer": {"class_name": "Zeros", "config": {}}}, "class_name": "BatchNormalization"}, {"inbound_nodes": [[["conv2d_70", 0, 0, {}]]], "name": "batch_normalization_70", "config": {"beta_regularizer": null, "gamma_constraint": null, "gamma_regularizer": null, "moving_variance_initializer": {"class_name": "Ones", "config": {}}, "epsilon": 0.001, "moving_mean_initializer": {"class_name": "Zeros", "config": {}}, "scale": false, "momentum": 0.99, "gamma_initializer": {"class_name": "Ones", "config": {}}, "axis": 3, "center": true, "trainable": true, "beta_constraint": null, "name": "batch_normalization_70", "beta_initializer": {"class_name": "Zeros", "config": {}}}, "class_name": "BatchNormalization"}, {"inbound_nodes": [[["batch_normalization_61", 0, 0, {}]]], "name": "activation_61", "config": {"activation": "relu", "name": "activation_61", "trainable": true}, "class_name": "Activation"}, {"inbound_nodes": [[["batch_normalization_64", 0, 0, {}]]], "name": "activation_64", "config": {"activation": "relu", "name": "activation_64", "trainable": true}, "class_name": "Activation"}, {"inbound_nodes": [[["batch_normalization_69", 0, 0, {}]]], "name": "activation_69", "config": {"activation": "relu", "name": "activation_69", "trainable": true}, "class_name": "Activation"}, {"inbound_nodes": [[["batch_normalization_70", 0, 0, {}]]], "name": "activation_70", "config": {"activation": "relu", "name": "activation_70", "trainable": true}, "class_name": "Activation"}, {"inbound_nodes": [[["activation_61", 0, 0, {}], ["activation_64", 0, 0, {}], ["activation_69", 0, 0, {}], ["activation_70", 0, 0, {}]]], "name": "mixed7", "config": {"name": "mixed7", "axis": 3, "trainable": true}, "class_name": "Concatenate"}, {"inbound_nodes": [[["mixed7", 0, 0, {}]]], "name": "conv2d_73", "config": {"bias_constraint": null, "activity_regularizer": null, "dilation_rate": [1, 1], "kernel_regularizer": null, "activation": "linear", "bias_regularizer": null, "use_bias": false, "strides": [1, 1], "data_format": "channels_last", "kernel_size": [1, 1], "kernel_constraint": null, "bias_initializer": {"class_name": "Zeros", "config": {}}, "trainable": true, "kernel_initializer": {"class_name": "VarianceScaling", "config": {"scale": 1.0, "distribution": "uniform", "mode": "fan_avg", "seed": null}}, "padding": "same", "filters": 192, "name": "conv2d_73"}, "class_name": "Conv2D"}, {"inbound_nodes": [[["conv2d_73", 0, 0, {}]]], "name": "batch_normalization_73", "config": {"beta_regularizer": null, "gamma_constraint": null, "gamma_regularizer": null, "moving_variance_initializer": {"class_name": "Ones", "config": {}}, "epsilon": 0.001, "moving_mean_initializer": {"class_name": "Zeros", "config": {}}, "scale": false, "momentum": 0.99, "gamma_initializer": {"class_name": "Ones", "config": {}}, "axis": 3, "center": true, "trainable": true, "beta_constraint": null, "name": "batch_normalization_73", "beta_initializer": {"class_name": "Zeros", "config": {}}}, "class_name": "BatchNormalization"}, {"inbound_nodes": [[["batch_normalization_73", 0, 0, {}]]], "name": "activation_73", "config": {"activation": "relu", "name": "activation_73", "trainable": true}, "class_name": "Activation"}, {"inbound_nodes": [[["activation_73", 0, 0, {}]]], "name": "conv2d_74", "config": {"bias_constraint": null, "activity_regularizer": null, "dilation_rate": [1, 1], "kernel_regularizer": null, "activation": "linear", "bias_regularizer": null, "use_bias": false, "strides": [1, 1], "data_format": "channels_last", "kernel_size": [1, 7], "kernel_constraint": null, "bias_initializer": {"class_name": "Zeros", "config": {}}, "trainable": true, "kernel_initializer": {"class_name": "VarianceScaling", "config": {"scale": 1.0, "distribution": "uniform", "mode": "fan_avg", "seed": null}}, "padding": "same", "filters": 192, "name": "conv2d_74"}, "class_name": "Conv2D"}, {"inbound_nodes": [[["conv2d_74", 0, 0, {}]]], "name": "batch_normalization_74", "config": {"beta_regularizer": null, "gamma_constraint": null, "gamma_regularizer": null, "moving_variance_initializer": {"class_name": "Ones", "config": {}}, "epsilon": 0.001, "moving_mean_initializer": {"class_name": "Zeros", "config": {}}, "scale": false, "momentum": 0.99, "gamma_initializer": {"class_name": "Ones", "config": {}}, "axis": 3, "center": true, "trainable": true, "beta_constraint": null, "name": "batch_normalization_74", "beta_initializer": {"class_name": "Zeros", "config": {}}}, "class_name": "BatchNormalization"}, {"inbound_nodes": [[["batch_normalization_74", 0, 0, {}]]], "name": "activation_74", "config": {"activation": "relu", "name": "activation_74", "trainable": true}, "class_name": "Activation"}, {"inbound_nodes": [[["mixed7", 0, 0, {}]]], "name": "conv2d_71", "config": {"bias_constraint": null, "activity_regularizer": null, "dilation_rate": [1, 1], "kernel_regularizer": null, "activation": "linear", "bias_regularizer": null, "use_bias": false, "strides": [1, 1], "data_format": "channels_last", "kernel_size": [1, 1], "kernel_constraint": null, "bias_initializer": {"class_name": "Zeros", "config": {}}, "trainable": true, "kernel_initializer": {"class_name": "VarianceScaling", "config": {"scale": 1.0, "distribution": "uniform", "mode": "fan_avg", "seed": null}}, "padding": "same", "filters": 192, "name": "conv2d_71"}, "class_name": "Conv2D"}, {"inbound_nodes": [[["activation_74", 0, 0, {}]]], "name": "conv2d_75", "config": {"bias_constraint": null, "activity_regularizer": null, "dilation_rate": [1, 1], "kernel_regularizer": null, "activation": "linear", "bias_regularizer": null, "use_bias": false, "strides": [1, 1], "data_format": "channels_last", "kernel_size": [7, 1], "kernel_constraint": null, "bias_initializer": {"class_name": "Zeros", "config": {}}, "trainable": true, "kernel_initializer": {"class_name": "VarianceScaling", "config": {"scale": 1.0, "distribution": "uniform", "mode": "fan_avg", "seed": null}}, "padding": "same", "filters": 192, "name": "conv2d_75"}, "class_name": "Conv2D"}, {"inbound_nodes": [[["conv2d_71", 0, 0, {}]]], "name": "batch_normalization_71", "config": {"beta_regularizer": null, "gamma_constraint": null, "gamma_regularizer": null, "moving_variance_initializer": {"class_name": "Ones", "config": {}}, "epsilon": 0.001, "moving_mean_initializer": {"class_name": "Zeros", "config": {}}, "scale": false, "momentum": 0.99, "gamma_initializer": {"class_name": "Ones", "config": {}}, "axis": 3, "center": true, "trainable": true, "beta_constraint": null, "name": "batch_normalization_71", "beta_initializer": {"class_name": "Zeros", "config": {}}}, "class_name": "BatchNormalization"}, {"inbound_nodes": [[["conv2d_75", 0, 0, {}]]], "name": "batch_normalization_75", "config": {"beta_regularizer": null, "gamma_constraint": null, "gamma_regularizer": null, "moving_variance_initializer": {"class_name": "Ones", "config": {}}, "epsilon": 0.001, "moving_mean_initializer": {"class_name": "Zeros", "config": {}}, "scale": false, "momentum": 0.99, "gamma_initializer": {"class_name": "Ones", "config": {}}, "axis": 3, "center": true, "trainable": true, "beta_constraint": null, "name": "batch_normalization_75", "beta_initializer": {"class_name": "Zeros", "config": {}}}, "class_name": "BatchNormalization"}, {"inbound_nodes": [[["batch_normalization_71", 0, 0, {}]]], "name": "activation_71", "config": {"activation": "relu", "name": "activation_71", "trainable": true}, "class_name": "Activation"}, {"inbound_nodes": [[["batch_normalization_75", 0, 0, {}]]], "name": "activation_75", "config": {"activation": "relu", "name": "activation_75", "trainable": true}, "class_name": "Activation"}, {"inbound_nodes": [[["activation_71", 0, 0, {}]]], "name": "conv2d_72", "config": {"bias_constraint": null, "activity_regularizer": null, "dilation_rate": [1, 1], "kernel_regularizer": null, "activation": "linear", "bias_regularizer": null, "use_bias": false, "strides": [2, 2], "data_format": "channels_last", "kernel_size": [3, 3], "kernel_constraint": null, "bias_initializer": {"class_name": "Zeros", "config": {}}, "trainable": true, "kernel_initializer": {"class_name": "VarianceScaling", "config": {"scale": 1.0, "distribution": "uniform", "mode": "fan_avg", "seed": null}}, "padding": "valid", "filters": 320, "name": "conv2d_72"}, "class_name": "Conv2D"}, {"inbound_nodes": [[["activation_75", 0, 0, {}]]], "name": "conv2d_76", "config": {"bias_constraint": null, "activity_regularizer": null, "dilation_rate": [1, 1], "kernel_regularizer": null, "activation": "linear", "bias_regularizer": null, "use_bias": false, "strides": [2, 2], "data_format": "channels_last", "kernel_size": [3, 3], "kernel_constraint": null, "bias_initializer": {"class_name": "Zeros", "config": {}}, "trainable": true, "kernel_initializer": {"class_name": "VarianceScaling", "config": {"scale": 1.0, "distribution": "uniform", "mode": "fan_avg", "seed": null}}, "padding": "valid", "filters": 192, "name": "conv2d_76"}, "class_name": "Conv2D"}, {"inbound_nodes": [[["conv2d_72", 0, 0, {}]]], "name": "batch_normalization_72", "config": {"beta_regularizer": null, "gamma_constraint": null, "gamma_regularizer": null, "moving_variance_initializer": {"class_name": "Ones", "config": {}}, "epsilon": 0.001, "moving_mean_initializer": {"class_name": "Zeros", "config": {}}, "scale": false, "momentum": 0.99, "gamma_initializer": {"class_name": "Ones", "config": {}}, "axis": 3, "center": true, "trainable": true, "beta_constraint": null, "name": "batch_normalization_72", "beta_initializer": {"class_name": "Zeros", "config": {}}}, "class_name": "BatchNormalization"}, {"inbound_nodes": [[["conv2d_76", 0, 0, {}]]], "name": "batch_normalization_76", "config": {"beta_regularizer": null, "gamma_constraint": null, "gamma_regularizer": null, "moving_variance_initializer": {"class_name": "Ones", "config": {}}, "epsilon": 0.001, "moving_mean_initializer": {"class_name": "Zeros", "config": {}}, "scale": false, "momentum": 0.99, "gamma_initializer": {"class_name": "Ones", "config": {}}, "axis": 3, "center": true, "trainable": true, "beta_constraint": null, "name": "batch_normalization_76", "beta_initializer": {"class_name": "Zeros", "config": {}}}, "class_name": "BatchNormalization"}, {"inbound_nodes": [[["batch_normalization_72", 0, 0, {}]]], "name": "activation_72", "config": {"activation": "relu", "name": "activation_72", "trainable": true}, "class_name": "Activation"}, {"inbound_nodes": [[["batch_normalization_76", 0, 0, {}]]], "name": "activation_76", "config": {"activation": "relu", "name": "activation_76", "trainable": true}, "class_name": "Activation"}, {"inbound_nodes": [[["mixed7", 0, 0, {}]]], "name": "max_pooling2d_4", "config": {"strides": [2, 2], "data_format": "channels_last", "name": "max_pooling2d_4", "pool_size": [3, 3], "padding": "valid", "trainable": true}, "class_name": "MaxPooling2D"}, {"inbound_nodes": [[["activation_72", 0, 0, {}], ["activation_76", 0, 0, {}], ["max_pooling2d_4", 0, 0, {}]]], "name": "mixed8", "config": {"name": "mixed8", "axis": 3, "trainable": true}, "class_name": "Concatenate"}, {"inbound_nodes": [[["mixed8", 0, 0, {}]]], "name": "conv2d_81", "config": {"bias_constraint": null, "activity_regularizer": null, "dilation_rate": [1, 1], "kernel_regularizer": null, "activation": "linear", "bias_regularizer": null, "use_bias": false, "strides": [1, 1], "data_format": "channels_last", "kernel_size": [1, 1], "kernel_constraint": null, "bias_initializer": {"class_name": "Zeros", "config": {}}, "trainable": true, "kernel_initializer": {"class_name": "VarianceScaling", "config": {"scale": 1.0, "distribution": "uniform", "mode": "fan_avg", "seed": null}}, "padding": "same", "filters": 448, "name": "conv2d_81"}, "class_name": "Conv2D"}, {"inbound_nodes": [[["conv2d_81", 0, 0, {}]]], "name": "batch_normalization_81", "config": {"beta_regularizer": null, "gamma_constraint": null, "gamma_regularizer": null, "moving_variance_initializer": {"class_name": "Ones", "config": {}}, "epsilon": 0.001, "moving_mean_initializer": {"class_name": "Zeros", "config": {}}, "scale": false, "momentum": 0.99, "gamma_initializer": {"class_name": "Ones", "config": {}}, "axis": 3, "center": true, "trainable": true, "beta_constraint": null, "name": "batch_normalization_81", "beta_initializer": {"class_name": "Zeros", "config": {}}}, "class_name": "BatchNormalization"}, {"inbound_nodes": [[["batch_normalization_81", 0, 0, {}]]], "name": "activation_81", "config": {"activation": "relu", "name": "activation_81", "trainable": true}, "class_name": "Activation"}, {"inbound_nodes": [[["mixed8", 0, 0, {}]]], "name": "conv2d_78", "config": {"bias_constraint": null, "activity_regularizer": null, "dilation_rate": [1, 1], "kernel_regularizer": null, "activation": "linear", "bias_regularizer": null, "use_bias": false, "strides": [1, 1], "data_format": "channels_last", "kernel_size": [1, 1], "kernel_constraint": null, "bias_initializer": {"class_name": "Zeros", "config": {}}, "trainable": true, "kernel_initializer": {"class_name": "VarianceScaling", "config": {"scale": 1.0, "distribution": "uniform", "mode": "fan_avg", "seed": null}}, "padding": "same", "filters": 384, "name": "conv2d_78"}, "class_name": "Conv2D"}, {"inbound_nodes": [[["activation_81", 0, 0, {}]]], "name": "conv2d_82", "config": {"bias_constraint": null, "activity_regularizer": null, "dilation_rate": [1, 1], "kernel_regularizer": null, "activation": "linear", "bias_regularizer": null, "use_bias": false, "strides": [1, 1], "data_format": "channels_last", "kernel_size": [3, 3], "kernel_constraint": null, "bias_initializer": {"class_name": "Zeros", "config": {}}, "trainable": true, "kernel_initializer": {"class_name": "VarianceScaling", "config": {"scale": 1.0, "distribution": "uniform", "mode": "fan_avg", "seed": null}}, "padding": "same", "filters": 384, "name": "conv2d_82"}, "class_name": "Conv2D"}, {"inbound_nodes": [[["conv2d_78", 0, 0, {}]]], "name": "batch_normalization_78", "config": {"beta_regularizer": null, "gamma_constraint": null, "gamma_regularizer": null, "moving_variance_initializer": {"class_name": "Ones", "config": {}}, "epsilon": 0.001, "moving_mean_initializer": {"class_name": "Zeros", "config": {}}, "scale": false, "momentum": 0.99, "gamma_initializer": {"class_name": "Ones", "config": {}}, "axis": 3, "center": true, "trainable": true, "beta_constraint": null, "name": "batch_normalization_78", "beta_initializer": {"class_name": "Zeros", "config": {}}}, "class_name": "BatchNormalization"}, {"inbound_nodes": [[["conv2d_82", 0, 0, {}]]], "name": "batch_normalization_82", "config": {"beta_regularizer": null, "gamma_constraint": null, "gamma_regularizer": null, "moving_variance_initializer": {"class_name": "Ones", "config": {}}, "epsilon": 0.001, "moving_mean_initializer": {"class_name": "Zeros", "config": {}}, "scale": false, "momentum": 0.99, "gamma_initializer": {"class_name": "Ones", "config": {}}, "axis": 3, "center": true, "trainable": true, "beta_constraint": null, "name": "batch_normalization_82", "beta_initializer": {"class_name": "Zeros", "config": {}}}, "class_name": "BatchNormalization"}, {"inbound_nodes": [[["batch_normalization_78", 0, 0, {}]]], "name": "activation_78", "config": {"activation": "relu", "name": "activation_78", "trainable": true}, "class_name": "Activation"}, {"inbound_nodes": [[["batch_normalization_82", 0, 0, {}]]], "name": "activation_82", "config": {"activation": "relu", "name": "activation_82", "trainable": true}, "class_name": "Activation"}, {"inbound_nodes": [[["activation_78", 0, 0, {}]]], "name": "conv2d_79", "config": {"bias_constraint": null, "activity_regularizer": null, "dilation_rate": [1, 1], "kernel_regularizer": null, "activation": "linear", "bias_regularizer": null, "use_bias": false, "strides": [1, 1], "data_format": "channels_last", "kernel_size": [1, 3], "kernel_constraint": null, "bias_initializer": {"class_name": "Zeros", "config": {}}, "trainable": true, "kernel_initializer": {"class_name": "VarianceScaling", "config": {"scale": 1.0, "distribution": "uniform", "mode": "fan_avg", "seed": null}}, "padding": "same", "filters": 384, "name": "conv2d_79"}, "class_name": "Conv2D"}, {"inbound_nodes": [[["activation_78", 0, 0, {}]]], "name": "conv2d_80", "config": {"bias_constraint": null, "activity_regularizer": null, "dilation_rate": [1, 1], "kernel_regularizer": null, "activation": "linear", "bias_regularizer": null, "use_bias": false, "strides": [1, 1], "data_format": "channels_last", "kernel_size": [3, 1], "kernel_constraint": null, "bias_initializer": {"class_name": "Zeros", "config": {}}, "trainable": true, "kernel_initializer": {"class_name": "VarianceScaling", "config": {"scale": 1.0, "distribution": "uniform", "mode": "fan_avg", "seed": null}}, "padding": "same", "filters": 384, "name": "conv2d_80"}, "class_name": "Conv2D"}, {"inbound_nodes": [[["activation_82", 0, 0, {}]]], "name": "conv2d_83", "config": {"bias_constraint": null, "activity_regularizer": null, "dilation_rate": [1, 1], "kernel_regularizer": null, "activation": "linear", "bias_regularizer": null, "use_bias": false, "strides": [1, 1], "data_format": "channels_last", "kernel_size": [1, 3], "kernel_constraint": null, "bias_initializer": {"class_name": "Zeros", "config": {}}, "trainable": true, "kernel_initializer": {"class_name": "VarianceScaling", "config": {"scale": 1.0, "distribution": "uniform", "mode": "fan_avg", "seed": null}}, "padding": "same", "filters": 384, "name": "conv2d_83"}, "class_name": "Conv2D"}, {"inbound_nodes": [[["activation_82", 0, 0, {}]]], "name": "conv2d_84", "config": {"bias_constraint": null, "activity_regularizer": null, "dilation_rate": [1, 1], "kernel_regularizer": null, "activation": "linear", "bias_regularizer": null, "use_bias": false, "strides": [1, 1], "data_format": "channels_last", "kernel_size": [3, 1], "kernel_constraint": null, "bias_initializer": {"class_name": "Zeros", "config": {}}, "trainable": true, "kernel_initializer": {"class_name": "VarianceScaling", "config": {"scale": 1.0, "distribution": "uniform", "mode": "fan_avg", "seed": null}}, "padding": "same", "filters": 384, "name": "conv2d_84"}, "class_name": "Conv2D"}, {"inbound_nodes": [[["mixed8", 0, 0, {}]]], "name": "average_pooling2d_8", "config": {"strides": [1, 1], "data_format": "channels_last", "name": "average_pooling2d_8", "pool_size": [3, 3], "padding": "same", "trainable": true}, "class_name": "AveragePooling2D"}, {"inbound_nodes": [[["mixed8", 0, 0, {}]]], "name": "conv2d_77", "config": {"bias_constraint": null, "activity_regularizer": null, "dilation_rate": [1, 1], "kernel_regularizer": null, "activation": "linear", "bias_regularizer": null, "use_bias": false, "strides": [1, 1], "data_format": "channels_last", "kernel_size": [1, 1], "kernel_constraint": null, "bias_initializer": {"class_name": "Zeros", "config": {}}, "trainable": true, "kernel_initializer": {"class_name": "VarianceScaling", "config": {"scale": 1.0, "distribution": "uniform", "mode": "fan_avg", "seed": null}}, "padding": "same", "filters": 320, "name": "conv2d_77"}, "class_name": "Conv2D"}, {"inbound_nodes": [[["conv2d_79", 0, 0, {}]]], "name": "batch_normalization_79", "config": {"beta_regularizer": null, "gamma_constraint": null, "gamma_regularizer": null, "moving_variance_initializer": {"class_name": "Ones", "config": {}}, "epsilon": 0.001, "moving_mean_initializer": {"class_name": "Zeros", "config": {}}, "scale": false, "momentum": 0.99, "gamma_initializer": {"class_name": "Ones", "config": {}}, "axis": 3, "center": true, "trainable": true, "beta_constraint": null, "name": "batch_normalization_79", "beta_initializer": {"class_name": "Zeros", "config": {}}}, "class_name": "BatchNormalization"}, {"inbound_nodes": [[["conv2d_80", 0, 0, {}]]], "name": "batch_normalization_80", "config": {"beta_regularizer": null, "gamma_constraint": null, "gamma_regularizer": null, "moving_variance_initializer": {"class_name": "Ones", "config": {}}, "epsilon": 0.001, "moving_mean_initializer": {"class_name": "Zeros", "config": {}}, "scale": false, "momentum": 0.99, "gamma_initializer": {"class_name": "Ones", "config": {}}, "axis": 3, "center": true, "trainable": true, "beta_constraint": null, "name": "batch_normalization_80", "beta_initializer": {"class_name": "Zeros", "config": {}}}, "class_name": "BatchNormalization"}, {"inbound_nodes": [[["conv2d_83", 0, 0, {}]]], "name": "batch_normalization_83", "config": {"beta_regularizer": null, "gamma_constraint": null, "gamma_regularizer": null, "moving_variance_initializer": {"class_name": "Ones", "config": {}}, "epsilon": 0.001, "moving_mean_initializer": {"class_name": "Zeros", "config": {}}, "scale": false, "momentum": 0.99, "gamma_initializer": {"class_name": "Ones", "config": {}}, "axis": 3, "center": true, "trainable": true, "beta_constraint": null, "name": "batch_normalization_83", "beta_initializer": {"class_name": "Zeros", "config": {}}}, "class_name": "BatchNormalization"}, {"inbound_nodes": [[["conv2d_84", 0, 0, {}]]], "name": "batch_normalization_84", "config": {"beta_regularizer": null, "gamma_constraint": null, "gamma_regularizer": null, "moving_variance_initializer": {"class_name": "Ones", "config": {}}, "epsilon": 0.001, "moving_mean_initializer": {"class_name": "Zeros", "config": {}}, "scale": false, "momentum": 0.99, "gamma_initializer": {"class_name": "Ones", "config": {}}, "axis": 3, "center": true, "trainable": true, "beta_constraint": null, "name": "batch_normalization_84", "beta_initializer": {"class_name": "Zeros", "config": {}}}, "class_name": "BatchNormalization"}, {"inbound_nodes": [[["average_pooling2d_8", 0, 0, {}]]], "name": "conv2d_85", "config": {"bias_constraint": null, "activity_regularizer": null, "dilation_rate": [1, 1], "kernel_regularizer": null, "activation": "linear", "bias_regularizer": null, "use_bias": false, "strides": [1, 1], "data_format": "channels_last", "kernel_size": [1, 1], "kernel_constraint": null, "bias_initializer": {"class_name": "Zeros", "config": {}}, "trainable": true, "kernel_initializer": {"class_name": "VarianceScaling", "config": {"scale": 1.0, "distribution": "uniform", "mode": "fan_avg", "seed": null}}, "padding": "same", "filters": 192, "name": "conv2d_85"}, "class_name": "Conv2D"}, {"inbound_nodes": [[["conv2d_77", 0, 0, {}]]], "name": "batch_normalization_77", "config": {"beta_regularizer": null, "gamma_constraint": null, "gamma_regularizer": null, "moving_variance_initializer": {"class_name": "Ones", "config": {}}, "epsilon": 0.001, "moving_mean_initializer": {"class_name": "Zeros", "config": {}}, "scale": false, "momentum": 0.99, "gamma_initializer": {"class_name": "Ones", "config": {}}, "axis": 3, "center": true, "trainable": true, "beta_constraint": null, "name": "batch_normalization_77", "beta_initializer": {"class_name": "Zeros", "config": {}}}, "class_name": "BatchNormalization"}, {"inbound_nodes": [[["batch_normalization_79", 0, 0, {}]]], "name": "activation_79", "config": {"activation": "relu", "name": "activation_79", "trainable": true}, "class_name": "Activation"}, {"inbound_nodes": [[["batch_normalization_80", 0, 0, {}]]], "name": "activation_80", "config": {"activation": "relu", "name": "activation_80", "trainable": true}, "class_name": "Activation"}, {"inbound_nodes": [[["batch_normalization_83", 0, 0, {}]]], "name": "activation_83", "config": {"activation": "relu", "name": "activation_83", "trainable": true}, "class_name": "Activation"}, {"inbound_nodes": [[["batch_normalization_84", 0, 0, {}]]], "name": "activation_84", "config": {"activation": "relu", "name": "activation_84", "trainable": true}, "class_name": "Activation"}, {"inbound_nodes": [[["conv2d_85", 0, 0, {}]]], "name": "batch_normalization_85", "config": {"beta_regularizer": null, "gamma_constraint": null, "gamma_regularizer": null, "moving_variance_initializer": {"class_name": "Ones", "config": {}}, "epsilon": 0.001, "moving_mean_initializer": {"class_name": "Zeros", "config": {}}, "scale": false, "momentum": 0.99, "gamma_initializer": {"class_name": "Ones", "config": {}}, "axis": 3, "center": true, "trainable": true, "beta_constraint": null, "name": "batch_normalization_85", "beta_initializer": {"class_name": "Zeros", "config": {}}}, "class_name": "BatchNormalization"}, {"inbound_nodes": [[["batch_normalization_77", 0, 0, {}]]], "name": "activation_77", "config": {"activation": "relu", "name": "activation_77", "trainable": true}, "class_name": "Activation"}, {"inbound_nodes": [[["activation_79", 0, 0, {}], ["activation_80", 0, 0, {}]]], "name": "mixed9_0", "config": {"name": "mixed9_0", "axis": 3, "trainable": true}, "class_name": "Concatenate"}, {"inbound_nodes": [[["activation_83", 0, 0, {}], ["activation_84", 0, 0, {}]]], "name": "concatenate_1", "config": {"name": "concatenate_1", "axis": 3, "trainable": true}, "class_name": "Concatenate"}, {"inbound_nodes": [[["batch_normalization_85", 0, 0, {}]]], "name": "activation_85", "config": {"activation": "relu", "name": "activation_85", "trainable": true}, "class_name": "Activation"}, {"inbound_nodes": [[["activation_77", 0, 0, {}], ["mixed9_0", 0, 0, {}], ["concatenate_1", 0, 0, {}], ["activation_85", 0, 0, {}]]], "name": "mixed9", "config": {"name": "mixed9", "axis": 3, "trainable": true}, "class_name": "Concatenate"}, {"inbound_nodes": [[["mixed9", 0, 0, {}]]], "name": "conv2d_90", "config": {"bias_constraint": null, "activity_regularizer": null, "dilation_rate": [1, 1], "kernel_regularizer": null, "activation": "linear", "bias_regularizer": null, "use_bias": false, "strides": [1, 1], "data_format": "channels_last", "kernel_size": [1, 1], "kernel_constraint": null, "bias_initializer": {"class_name": "Zeros", "config": {}}, "trainable": true, "kernel_initializer": {"class_name": "VarianceScaling", "config": {"scale": 1.0, "distribution": "uniform", "mode": "fan_avg", "seed": null}}, "padding": "same", "filters": 448, "name": "conv2d_90"}, "class_name": "Conv2D"}, {"inbound_nodes": [[["conv2d_90", 0, 0, {}]]], "name": "batch_normalization_90", "config": {"beta_regularizer": null, "gamma_constraint": null, "gamma_regularizer": null, "moving_variance_initializer": {"class_name": "Ones", "config": {}}, "epsilon": 0.001, "moving_mean_initializer": {"class_name": "Zeros", "config": {}}, "scale": false, "momentum": 0.99, "gamma_initializer": {"class_name": "Ones", "config": {}}, "axis": 3, "center": true, "trainable": true, "beta_constraint": null, "name": "batch_normalization_90", "beta_initializer": {"class_name": "Zeros", "config": {}}}, "class_name": "BatchNormalization"}, {"inbound_nodes": [[["batch_normalization_90", 0, 0, {}]]], "name": "activation_90", "config": {"activation": "relu", "name": "activation_90", "trainable": true}, "class_name": "Activation"}, {"inbound_nodes": [[["mixed9", 0, 0, {}]]], "name": "conv2d_87", "config": {"bias_constraint": null, "activity_regularizer": null, "dilation_rate": [1, 1], "kernel_regularizer": null, "activation": "linear", "bias_regularizer": null, "use_bias": false, "strides": [1, 1], "data_format": "channels_last", "kernel_size": [1, 1], "kernel_constraint": null, "bias_initializer": {"class_name": "Zeros", "config": {}}, "trainable": true, "kernel_initializer": {"class_name": "VarianceScaling", "config": {"scale": 1.0, "distribution": "uniform", "mode": "fan_avg", "seed": null}}, "padding": "same", "filters": 384, "name": "conv2d_87"}, "class_name": "Conv2D"}, {"inbound_nodes": [[["activation_90", 0, 0, {}]]], "name": "conv2d_91", "config": {"bias_constraint": null, "activity_regularizer": null, "dilation_rate": [1, 1], "kernel_regularizer": null, "activation": "linear", "bias_regularizer": null, "use_bias": false, "strides": [1, 1], "data_format": "channels_last", "kernel_size": [3, 3], "kernel_constraint": null, "bias_initializer": {"class_name": "Zeros", "config": {}}, "trainable": true, "kernel_initializer": {"class_name": "VarianceScaling", "config": {"scale": 1.0, "distribution": "uniform", "mode": "fan_avg", "seed": null}}, "padding": "same", "filters": 384, "name": "conv2d_91"}, "class_name": "Conv2D"}, {"inbound_nodes": [[["conv2d_87", 0, 0, {}]]], "name": "batch_normalization_87", "config": {"beta_regularizer": null, "gamma_constraint": null, "gamma_regularizer": null, "moving_variance_initializer": {"class_name": "Ones", "config": {}}, "epsilon": 0.001, "moving_mean_initializer": {"class_name": "Zeros", "config": {}}, "scale": false, "momentum": 0.99, "gamma_initializer": {"class_name": "Ones", "config": {}}, "axis": 3, "center": true, "trainable": true, "beta_constraint": null, "name": "batch_normalization_87", "beta_initializer": {"class_name": "Zeros", "config": {}}}, "class_name": "BatchNormalization"}, {"inbound_nodes": [[["conv2d_91", 0, 0, {}]]], "name": "batch_normalization_91", "config": {"beta_regularizer": null, "gamma_constraint": null, "gamma_regularizer": null, "moving_variance_initializer": {"class_name": "Ones", "config": {}}, "epsilon": 0.001, "moving_mean_initializer": {"class_name": "Zeros", "config": {}}, "scale": false, "momentum": 0.99, "gamma_initializer": {"class_name": "Ones", "config": {}}, "axis": 3, "center": true, "trainable": true, "beta_constraint": null, "name": "batch_normalization_91", "beta_initializer": {"class_name": "Zeros", "config": {}}}, "class_name": "BatchNormalization"}, {"inbound_nodes": [[["batch_normalization_87", 0, 0, {}]]], "name": "activation_87", "config": {"activation": "relu", "name": "activation_87", "trainable": true}, "class_name": "Activation"}, {"inbound_nodes": [[["batch_normalization_91", 0, 0, {}]]], "name": "activation_91", "config": {"activation": "relu", "name": "activation_91", "trainable": true}, "class_name": "Activation"}, {"inbound_nodes": [[["activation_87", 0, 0, {}]]], "name": "conv2d_88", "config": {"bias_constraint": null, "activity_regularizer": null, "dilation_rate": [1, 1], "kernel_regularizer": null, "activation": "linear", "bias_regularizer": null, "use_bias": false, "strides": [1, 1], "data_format": "channels_last", "kernel_size": [1, 3], "kernel_constraint": null, "bias_initializer": {"class_name": "Zeros", "config": {}}, "trainable": true, "kernel_initializer": {"class_name": "VarianceScaling", "config": {"scale": 1.0, "distribution": "uniform", "mode": "fan_avg", "seed": null}}, "padding": "same", "filters": 384, "name": "conv2d_88"}, "class_name": "Conv2D"}, {"inbound_nodes": [[["activation_87", 0, 0, {}]]], "name": "conv2d_89", "config": {"bias_constraint": null, "activity_regularizer": null, "dilation_rate": [1, 1], "kernel_regularizer": null, "activation": "linear", "bias_regularizer": null, "use_bias": false, "strides": [1, 1], "data_format": "channels_last", "kernel_size": [3, 1], "kernel_constraint": null, "bias_initializer": {"class_name": "Zeros", "config": {}}, "trainable": true, "kernel_initializer": {"class_name": "VarianceScaling", "config": {"scale": 1.0, "distribution": "uniform", "mode": "fan_avg", "seed": null}}, "padding": "same", "filters": 384, "name": "conv2d_89"}, "class_name": "Conv2D"}, {"inbound_nodes": [[["activation_91", 0, 0, {}]]], "name": "conv2d_92", "config": {"bias_constraint": null, "activity_regularizer": null, "dilation_rate": [1, 1], "kernel_regularizer": null, "activation": "linear", "bias_regularizer": null, "use_bias": false, "strides": [1, 1], "data_format": "channels_last", "kernel_size": [1, 3], "kernel_constraint": null, "bias_initializer": {"class_name": "Zeros", "config": {}}, "trainable": true, "kernel_initializer": {"class_name": "VarianceScaling", "config": {"scale": 1.0, "distribution": "uniform", "mode": "fan_avg", "seed": null}}, "padding": "same", "filters": 384, "name": "conv2d_92"}, "class_name": "Conv2D"}, {"inbound_nodes": [[["activation_91", 0, 0, {}]]], "name": "conv2d_93", "config": {"bias_constraint": null, "activity_regularizer": null, "dilation_rate": [1, 1], "kernel_regularizer": null, "activation": "linear", "bias_regularizer": null, "use_bias": false, "strides": [1, 1], "data_format": "channels_last", "kernel_size": [3, 1], "kernel_constraint": null, "bias_initializer": {"class_name": "Zeros", "config": {}}, "trainable": true, "kernel_initializer": {"class_name": "VarianceScaling", "config": {"scale": 1.0, "distribution": "uniform", "mode": "fan_avg", "seed": null}}, "padding": "same", "filters": 384, "name": "conv2d_93"}, "class_name": "Conv2D"}, {"inbound_nodes": [[["mixed9", 0, 0, {}]]], "name": "average_pooling2d_9", "config": {"strides": [1, 1], "data_format": "channels_last", "name": "average_pooling2d_9", "pool_size": [3, 3], "padding": "same", "trainable": true}, "class_name": "AveragePooling2D"}, {"inbound_nodes": [[["mixed9", 0, 0, {}]]], "name": "conv2d_86", "config": {"bias_constraint": null, "activity_regularizer": null, "dilation_rate": [1, 1], "kernel_regularizer": null, "activation": "linear", "bias_regularizer": null, "use_bias": false, "strides": [1, 1], "data_format": "channels_last", "kernel_size": [1, 1], "kernel_constraint": null, "bias_initializer": {"class_name": "Zeros", "config": {}}, "trainable": true, "kernel_initializer": {"class_name": "VarianceScaling", "config": {"scale": 1.0, "distribution": "uniform", "mode": "fan_avg", "seed": null}}, "padding": "same", "filters": 320, "name": "conv2d_86"}, "class_name": "Conv2D"}, {"inbound_nodes": [[["conv2d_88", 0, 0, {}]]], "name": "batch_normalization_88", "config": {"beta_regularizer": null, "gamma_constraint": null, "gamma_regularizer": null, "moving_variance_initializer": {"class_name": "Ones", "config": {}}, "epsilon": 0.001, "moving_mean_initializer": {"class_name": "Zeros", "config": {}}, "scale": false, "momentum": 0.99, "gamma_initializer": {"class_name": "Ones", "config": {}}, "axis": 3, "center": true, "trainable": true, "beta_constraint": null, "name": "batch_normalization_88", "beta_initializer": {"class_name": "Zeros", "config": {}}}, "class_name": "BatchNormalization"}, {"inbound_nodes": [[["conv2d_89", 0, 0, {}]]], "name": "batch_normalization_89", "config": {"beta_regularizer": null, "gamma_constraint": null, "gamma_regularizer": null, "moving_variance_initializer": {"class_name": "Ones", "config": {}}, "epsilon": 0.001, "moving_mean_initializer": {"class_name": "Zeros", "config": {}}, "scale": false, "momentum": 0.99, "gamma_initializer": {"class_name": "Ones", "config": {}}, "axis": 3, "center": true, "trainable": true, "beta_constraint": null, "name": "batch_normalization_89", "beta_initializer": {"class_name": "Zeros", "config": {}}}, "class_name": "BatchNormalization"}, {"inbound_nodes": [[["conv2d_92", 0, 0, {}]]], "name": "batch_normalization_92", "config": {"beta_regularizer": null, "gamma_constraint": null, "gamma_regularizer": null, "moving_variance_initializer": {"class_name": "Ones", "config": {}}, "epsilon": 0.001, "moving_mean_initializer": {"class_name": "Zeros", "config": {}}, "scale": false, "momentum": 0.99, "gamma_initializer": {"class_name": "Ones", "config": {}}, "axis": 3, "center": true, "trainable": true, "beta_constraint": null, "name": "batch_normalization_92", "beta_initializer": {"class_name": "Zeros", "config": {}}}, "class_name": "BatchNormalization"}, {"inbound_nodes": [[["conv2d_93", 0, 0, {}]]], "name": "batch_normalization_93", "config": {"beta_regularizer": null, "gamma_constraint": null, "gamma_regularizer": null, "moving_variance_initializer": {"class_name": "Ones", "config": {}}, "epsilon": 0.001, "moving_mean_initializer": {"class_name": "Zeros", "config": {}}, "scale": false, "momentum": 0.99, "gamma_initializer": {"class_name": "Ones", "config": {}}, "axis": 3, "center": true, "trainable": true, "beta_constraint": null, "name": "batch_normalization_93", "beta_initializer": {"class_name": "Zeros", "config": {}}}, "class_name": "BatchNormalization"}, {"inbound_nodes": [[["average_pooling2d_9", 0, 0, {}]]], "name": "conv2d_94", "config": {"bias_constraint": null, "activity_regularizer": null, "dilation_rate": [1, 1], "kernel_regularizer": null, "activation": "linear", "bias_regularizer": null, "use_bias": false, "strides": [1, 1], "data_format": "channels_last", "kernel_size": [1, 1], "kernel_constraint": null, "bias_initializer": {"class_name": "Zeros", "config": {}}, "trainable": true, "kernel_initializer": {"class_name": "VarianceScaling", "config": {"scale": 1.0, "distribution": "uniform", "mode": "fan_avg", "seed": null}}, "padding": "same", "filters": 192, "name": "conv2d_94"}, "class_name": "Conv2D"}, {"inbound_nodes": [[["conv2d_86", 0, 0, {}]]], "name": "batch_normalization_86", "config": {"beta_regularizer": null, "gamma_constraint": null, "gamma_regularizer": null, "moving_variance_initializer": {"class_name": "Ones", "config": {}}, "epsilon": 0.001, "moving_mean_initializer": {"class_name": "Zeros", "config": {}}, "scale": false, "momentum": 0.99, "gamma_initializer": {"class_name": "Ones", "config": {}}, "axis": 3, "center": true, "trainable": true, "beta_constraint": null, "name": "batch_normalization_86", "beta_initializer": {"class_name": "Zeros", "config": {}}}, "class_name": "BatchNormalization"}, {"inbound_nodes": [[["batch_normalization_88", 0, 0, {}]]], "name": "activation_88", "config": {"activation": "relu", "name": "activation_88", "trainable": true}, "class_name": "Activation"}, {"inbound_nodes": [[["batch_normalization_89", 0, 0, {}]]], "name": "activation_89", "config": {"activation": "relu", "name": "activation_89", "trainable": true}, "class_name": "Activation"}, {"inbound_nodes": [[["batch_normalization_92", 0, 0, {}]]], "name": "activation_92", "config": {"activation": "relu", "name": "activation_92", "trainable": true}, "class_name": "Activation"}, {"inbound_nodes": [[["batch_normalization_93", 0, 0, {}]]], "name": "activation_93", "config": {"activation": "relu", "name": "activation_93", "trainable": true}, "class_name": "Activation"}, {"inbound_nodes": [[["conv2d_94", 0, 0, {}]]], "name": "batch_normalization_94", "config": {"beta_regularizer": null, "gamma_constraint": null, "gamma_regularizer": null, "moving_variance_initializer": {"class_name": "Ones", "config": {}}, "epsilon": 0.001, "moving_mean_initializer": {"class_name": "Zeros", "config": {}}, "scale": false, "momentum": 0.99, "gamma_initializer": {"class_name": "Ones", "config": {}}, "axis": 3, "center": true, "trainable": true, "beta_constraint": null, "name": "batch_normalization_94", "beta_initializer": {"class_name": "Zeros", "config": {}}}, "class_name": "BatchNormalization"}, {"inbound_nodes": [[["batch_normalization_86", 0, 0, {}]]], "name": "activation_86", "config": {"activation": "relu", "name": "activation_86", "trainable": true}, "class_name": "Activation"}, {"inbound_nodes": [[["activation_88", 0, 0, {}], ["activation_89", 0, 0, {}]]], "name": "mixed9_1", "config": {"name": "mixed9_1", "axis": 3, "trainable": true}, "class_name": "Concatenate"}, {"inbound_nodes": [[["activation_92", 0, 0, {}], ["activation_93", 0, 0, {}]]], "name": "concatenate_2", "config": {"name": "concatenate_2", "axis": 3, "trainable": true}, "class_name": "Concatenate"}, {"inbound_nodes": [[["batch_normalization_94", 0, 0, {}]]], "name": "activation_94", "config": {"activation": "relu", "name": "activation_94", "trainable": true}, "class_name": "Activation"}, {"inbound_nodes": [[["activation_86", 0, 0, {}], ["mixed9_1", 0, 0, {}], ["concatenate_2", 0, 0, {}], ["activation_94", 0, 0, {}]]], "name": "mixed10", "config": {"name": "mixed10", "axis": 3, "trainable": true}, "class_name": "Concatenate"}, {"inbound_nodes": [[["mixed10", 0, 0, {}]]], "name": "avg_pool", "config": {"data_format": "channels_last", "name": "avg_pool", "trainable": true}, "class_name": "GlobalAveragePooling2D"}, {"inbound_nodes": [[["avg_pool", 0, 0, {}]]], "name": "predictions", "config": {"bias_constraint": null, "activity_regularizer": null, "units": 1000, "kernel_regularizer": null, "activation": "softmax", "bias_regularizer": null, "bias_initializer": {"class_name": "Zeros", "config": {}}, "kernel_constraint": null, "name": "predictions", "kernel_initializer": {"class_name": "VarianceScaling", "config": {"scale": 1.0, "distribution": "uniform", "mode": "fan_avg", "seed": null}}, "use_bias": true, "trainable": true}, "class_name": "Dense"}], "name": "inception_v3", "input_layers": [["input_1", 0, 0]], "output_layers": [["predictions", 0, 0]]}, "backend": "tensorflow"}